program(1.0)
[buildInfo = dict<tensor<string, []>, tensor<string, []>>({{"coremlc-component-MIL", "4.28.3"}, {"coremlc-version", "1436.100.10"}, {"coremltools-component-tensorflow", "2.6.0"}, {"coremltools-version", "5.2.0"}})]
{
    func main<ios15>(tensor<fp32, [1, 4096, 131]> input_melspec) {
            tensor<int32, [3]> model_time_distributed_Reshape_shape = const()[name = tensor<string, []>("model_time_distributed_Reshape_shape"), val = tensor<int32, [3]>([-1, 8, 32])];
            tensor<int32, [2]> model_time_distributed_flatten_Const = const()[name = tensor<string, []>("model_time_distributed_flatten_Const"), val = tensor<int32, [2]>([-1, 256])];
            tensor<int32, []> model_beats_downbeats_concat_dense_concat_axis = const()[name = tensor<string, []>("model_beats_downbeats_concat_dense_concat_axis"), val = tensor<int32, []>(2)];
            tensor<int32, [4]> model_reshape_Reshape_shape = const()[name = tensor<string, []>("model_reshape_Reshape_shape"), val = tensor<int32, [4]>([1, -1, 131, 1])];
            tensor<string, []> input_1_to_fp16_dtype_0 = const()[name = tensor<string, []>("input_1_to_fp16_dtype_0"), val = tensor<string, []>("fp16")];
            tensor<fp16, [1, 4096, 131]> cast_546 = cast(dtype = input_1_to_fp16_dtype_0, x = input_melspec);
            tensor<fp16, [1, 4096, 131, 1]> model_reshape_Reshape_cast = reshape(shape = model_reshape_Reshape_shape, x = cast_546);
            tensor<int32, [4]> transpose_1_perm_0 = const()[name = tensor<string, []>("transpose_1_perm_0"), val = tensor<int32, [4]>([0, 3, 1, 2])];
            tensor<string, []> model_conv2d_Conv2Dx_pad_type_0 = const()[name = tensor<string, []>("model_conv2d_Conv2Dx_pad_type_0"), val = tensor<string, []>("same")];
            tensor<int32, [2]> model_conv2d_Conv2Dx_strides_0 = const()[name = tensor<string, []>("model_conv2d_Conv2Dx_strides_0"), val = tensor<int32, [2]>([1, 1])];
            tensor<int32, [2]> model_conv2d_Conv2Dx_dilations_0 = const()[name = tensor<string, []>("model_conv2d_Conv2Dx_dilations_0"), val = tensor<int32, [2]>([1, 1])];
            tensor<int32, []> model_conv2d_Conv2Dx_groups_0 = const()[name = tensor<string, []>("model_conv2d_Conv2Dx_groups_0"), val = tensor<int32, []>(1)];
            tensor<int32, [4]> model_conv2d_Conv2Dx_pad_0 = const()[name = tensor<string, []>("model_conv2d_Conv2Dx_pad_0"), val = tensor<int32, [4]>([0, 0, 0, 0])];
            tensor<fp16, [32, 1, 1, 1]> transpose_0_to_fp16 = const()[name = tensor<string, []>("transpose_0_to_fp16"), val = tensor<fp16, [32, 1, 1, 1]>(BLOBFILE(path = tensor<string, []>("@model_path/weights/weight.bin"), offset = tensor<uint64, []>(64)))];
            tensor<fp16, [32]> const_37_to_fp16 = const()[name = tensor<string, []>("const_37_to_fp16"), val = tensor<fp16, [32]>(BLOBFILE(path = tensor<string, []>("@model_path/weights/weight.bin"), offset = tensor<uint64, []>(192)))];
            tensor<fp16, [1, 1, 4096, 131]> transpose_234 = transpose(perm = transpose_1_perm_0, x = model_reshape_Reshape_cast);
            tensor<fp16, [1, 32, 4096, 131]> model_conv2d_BiasAdd_cast = conv(bias = const_37_to_fp16, dilations = model_conv2d_Conv2Dx_dilations_0, groups = model_conv2d_Conv2Dx_groups_0, pad = model_conv2d_Conv2Dx_pad_0, pad_type = model_conv2d_Conv2Dx_pad_type_0, strides = model_conv2d_Conv2Dx_strides_0, weight = transpose_0_to_fp16, x = transpose_234);
            tensor<fp16, []> elu_0_alpha_0_to_fp16 = const()[name = tensor<string, []>("elu_0_alpha_0_to_fp16"), val = tensor<fp16, []>(0x1.ac4p+0)];
            tensor<fp16, [1, 32, 4096, 131]> elu_0_cast = elu(alpha = elu_0_alpha_0_to_fp16, x = model_conv2d_BiasAdd_cast);
            tensor<fp16, []> model_conv2d_Selu_y_0_to_fp16 = const()[name = tensor<string, []>("model_conv2d_Selu_y_0_to_fp16"), val = tensor<fp16, []>(0x1.0dp+0)];
            tensor<fp16, [1, 32, 4096, 131]> model_conv2d_Selu_cast = mul(x = elu_0_cast, y = model_conv2d_Selu_y_0_to_fp16);
            tensor<string, []> model_conv2d_1_Conv2Dx_pad_type_0 = const()[name = tensor<string, []>("model_conv2d_1_Conv2Dx_pad_type_0"), val = tensor<string, []>("same")];
            tensor<int32, [2]> model_conv2d_1_Conv2Dx_strides_0 = const()[name = tensor<string, []>("model_conv2d_1_Conv2Dx_strides_0"), val = tensor<int32, [2]>([1, 1])];
            tensor<int32, [2]> model_conv2d_1_Conv2Dx_dilations_0 = const()[name = tensor<string, []>("model_conv2d_1_Conv2Dx_dilations_0"), val = tensor<int32, [2]>([1, 1])];
            tensor<int32, []> model_conv2d_1_Conv2Dx_groups_0 = const()[name = tensor<string, []>("model_conv2d_1_Conv2Dx_groups_0"), val = tensor<int32, []>(32)];
            tensor<int32, [4]> model_conv2d_1_Conv2Dx_pad_0 = const()[name = tensor<string, []>("model_conv2d_1_Conv2Dx_pad_0"), val = tensor<int32, [4]>([0, 0, 0, 0])];
            tensor<fp16, [32, 1, 7, 7]> transpose_2_to_fp16 = const()[name = tensor<string, []>("transpose_2_to_fp16"), val = tensor<fp16, [32, 1, 7, 7]>(BLOBFILE(path = tensor<string, []>("@model_path/weights/weight.bin"), offset = tensor<uint64, []>(320)))];
            tensor<fp16, [32]> const_38_to_fp16 = const()[name = tensor<string, []>("const_38_to_fp16"), val = tensor<fp16, [32]>(BLOBFILE(path = tensor<string, []>("@model_path/weights/weight.bin"), offset = tensor<uint64, []>(3520)))];
            tensor<fp16, [1, 32, 4096, 131]> model_conv2d_1_BiasAdd_cast = conv(bias = const_38_to_fp16, dilations = model_conv2d_1_Conv2Dx_dilations_0, groups = model_conv2d_1_Conv2Dx_groups_0, pad = model_conv2d_1_Conv2Dx_pad_0, pad_type = model_conv2d_1_Conv2Dx_pad_type_0, strides = model_conv2d_1_Conv2Dx_strides_0, weight = transpose_2_to_fp16, x = model_conv2d_Selu_cast);
            tensor<string, []> model_conv2d_2_Conv2Dx_pad_type_0 = const()[name = tensor<string, []>("model_conv2d_2_Conv2Dx_pad_type_0"), val = tensor<string, []>("same")];
            tensor<int32, [2]> model_conv2d_2_Conv2Dx_strides_0 = const()[name = tensor<string, []>("model_conv2d_2_Conv2Dx_strides_0"), val = tensor<int32, [2]>([1, 1])];
            tensor<int32, [2]> model_conv2d_2_Conv2Dx_dilations_0 = const()[name = tensor<string, []>("model_conv2d_2_Conv2Dx_dilations_0"), val = tensor<int32, [2]>([1, 1])];
            tensor<int32, []> model_conv2d_2_Conv2Dx_groups_0 = const()[name = tensor<string, []>("model_conv2d_2_Conv2Dx_groups_0"), val = tensor<int32, []>(1)];
            tensor<int32, [4]> model_conv2d_2_Conv2Dx_pad_0 = const()[name = tensor<string, []>("model_conv2d_2_Conv2Dx_pad_0"), val = tensor<int32, [4]>([0, 0, 0, 0])];
            tensor<fp16, [64, 32, 1, 1]> transpose_4_to_fp16 = const()[name = tensor<string, []>("transpose_4_to_fp16"), val = tensor<fp16, [64, 32, 1, 1]>(BLOBFILE(path = tensor<string, []>("@model_path/weights/weight.bin"), offset = tensor<uint64, []>(3648)))];
            tensor<fp16, [64]> const_39_to_fp16 = const()[name = tensor<string, []>("const_39_to_fp16"), val = tensor<fp16, [64]>(BLOBFILE(path = tensor<string, []>("@model_path/weights/weight.bin"), offset = tensor<uint64, []>(7808)))];
            tensor<fp16, [1, 64, 4096, 131]> model_conv2d_2_BiasAdd_cast = conv(bias = const_39_to_fp16, dilations = model_conv2d_2_Conv2Dx_dilations_0, groups = model_conv2d_2_Conv2Dx_groups_0, pad = model_conv2d_2_Conv2Dx_pad_0, pad_type = model_conv2d_2_Conv2Dx_pad_type_0, strides = model_conv2d_2_Conv2Dx_strides_0, weight = transpose_4_to_fp16, x = model_conv2d_1_BiasAdd_cast);
            tensor<fp16, []> elu_1_alpha_0_to_fp16 = const()[name = tensor<string, []>("elu_1_alpha_0_to_fp16"), val = tensor<fp16, []>(0x1.ac4p+0)];
            tensor<fp16, [1, 64, 4096, 131]> elu_1_cast = elu(alpha = elu_1_alpha_0_to_fp16, x = model_conv2d_2_BiasAdd_cast);
            tensor<fp16, []> model_activation_Selu_y_0_to_fp16 = const()[name = tensor<string, []>("model_activation_Selu_y_0_to_fp16"), val = tensor<fp16, []>(0x1.0dp+0)];
            tensor<fp16, [1, 64, 4096, 131]> model_activation_Selu_cast = mul(x = elu_1_cast, y = model_activation_Selu_y_0_to_fp16);
            tensor<string, []> model_conv2d_3_Conv2Dx_pad_type_0 = const()[name = tensor<string, []>("model_conv2d_3_Conv2Dx_pad_type_0"), val = tensor<string, []>("same")];
            tensor<int32, [2]> model_conv2d_3_Conv2Dx_strides_0 = const()[name = tensor<string, []>("model_conv2d_3_Conv2Dx_strides_0"), val = tensor<int32, [2]>([1, 1])];
            tensor<int32, [2]> model_conv2d_3_Conv2Dx_dilations_0 = const()[name = tensor<string, []>("model_conv2d_3_Conv2Dx_dilations_0"), val = tensor<int32, [2]>([1, 1])];
            tensor<int32, []> model_conv2d_3_Conv2Dx_groups_0 = const()[name = tensor<string, []>("model_conv2d_3_Conv2Dx_groups_0"), val = tensor<int32, []>(1)];
            tensor<int32, [4]> model_conv2d_3_Conv2Dx_pad_0 = const()[name = tensor<string, []>("model_conv2d_3_Conv2Dx_pad_0"), val = tensor<int32, [4]>([0, 0, 0, 0])];
            tensor<fp16, [32, 64, 1, 1]> transpose_6_to_fp16 = const()[name = tensor<string, []>("transpose_6_to_fp16"), val = tensor<fp16, [32, 64, 1, 1]>(BLOBFILE(path = tensor<string, []>("@model_path/weights/weight.bin"), offset = tensor<uint64, []>(8000)))];
            tensor<fp16, [32]> const_40_to_fp16 = const()[name = tensor<string, []>("const_40_to_fp16"), val = tensor<fp16, [32]>(BLOBFILE(path = tensor<string, []>("@model_path/weights/weight.bin"), offset = tensor<uint64, []>(12160)))];
            tensor<fp16, [1, 32, 4096, 131]> model_conv2d_3_BiasAdd_cast = conv(bias = const_40_to_fp16, dilations = model_conv2d_3_Conv2Dx_dilations_0, groups = model_conv2d_3_Conv2Dx_groups_0, pad = model_conv2d_3_Conv2Dx_pad_0, pad_type = model_conv2d_3_Conv2Dx_pad_type_0, strides = model_conv2d_3_Conv2Dx_strides_0, weight = transpose_6_to_fp16, x = model_activation_Selu_cast);
            tensor<fp16, [1, 32, 4096, 131]> model_add_add_cast = add(x = model_conv2d_3_BiasAdd_cast, y = model_conv2d_Selu_cast);
            tensor<string, []> model_conv2d_4_Conv2Dx_pad_type_0 = const()[name = tensor<string, []>("model_conv2d_4_Conv2Dx_pad_type_0"), val = tensor<string, []>("same")];
            tensor<int32, [2]> model_conv2d_4_Conv2Dx_strides_0 = const()[name = tensor<string, []>("model_conv2d_4_Conv2Dx_strides_0"), val = tensor<int32, [2]>([1, 1])];
            tensor<int32, [2]> model_conv2d_4_Conv2Dx_dilations_0 = const()[name = tensor<string, []>("model_conv2d_4_Conv2Dx_dilations_0"), val = tensor<int32, [2]>([1, 1])];
            tensor<int32, []> model_conv2d_4_Conv2Dx_groups_0 = const()[name = tensor<string, []>("model_conv2d_4_Conv2Dx_groups_0"), val = tensor<int32, []>(32)];
            tensor<int32, [4]> model_conv2d_4_Conv2Dx_pad_0 = const()[name = tensor<string, []>("model_conv2d_4_Conv2Dx_pad_0"), val = tensor<int32, [4]>([0, 0, 0, 0])];
            tensor<fp16, [32, 1, 7, 7]> transpose_8_to_fp16 = const()[name = tensor<string, []>("transpose_8_to_fp16"), val = tensor<fp16, [32, 1, 7, 7]>(BLOBFILE(path = tensor<string, []>("@model_path/weights/weight.bin"), offset = tensor<uint64, []>(12288)))];
            tensor<fp16, [32]> const_41_to_fp16 = const()[name = tensor<string, []>("const_41_to_fp16"), val = tensor<fp16, [32]>(BLOBFILE(path = tensor<string, []>("@model_path/weights/weight.bin"), offset = tensor<uint64, []>(15488)))];
            tensor<fp16, [1, 32, 4096, 131]> model_conv2d_4_BiasAdd_cast = conv(bias = const_41_to_fp16, dilations = model_conv2d_4_Conv2Dx_dilations_0, groups = model_conv2d_4_Conv2Dx_groups_0, pad = model_conv2d_4_Conv2Dx_pad_0, pad_type = model_conv2d_4_Conv2Dx_pad_type_0, strides = model_conv2d_4_Conv2Dx_strides_0, weight = transpose_8_to_fp16, x = model_add_add_cast);
            tensor<string, []> model_conv2d_5_Conv2Dx_pad_type_0 = const()[name = tensor<string, []>("model_conv2d_5_Conv2Dx_pad_type_0"), val = tensor<string, []>("same")];
            tensor<int32, [2]> model_conv2d_5_Conv2Dx_strides_0 = const()[name = tensor<string, []>("model_conv2d_5_Conv2Dx_strides_0"), val = tensor<int32, [2]>([1, 1])];
            tensor<int32, [2]> model_conv2d_5_Conv2Dx_dilations_0 = const()[name = tensor<string, []>("model_conv2d_5_Conv2Dx_dilations_0"), val = tensor<int32, [2]>([1, 1])];
            tensor<int32, []> model_conv2d_5_Conv2Dx_groups_0 = const()[name = tensor<string, []>("model_conv2d_5_Conv2Dx_groups_0"), val = tensor<int32, []>(1)];
            tensor<int32, [4]> model_conv2d_5_Conv2Dx_pad_0 = const()[name = tensor<string, []>("model_conv2d_5_Conv2Dx_pad_0"), val = tensor<int32, [4]>([0, 0, 0, 0])];
            tensor<fp16, [64, 32, 1, 1]> transpose_10_to_fp16 = const()[name = tensor<string, []>("transpose_10_to_fp16"), val = tensor<fp16, [64, 32, 1, 1]>(BLOBFILE(path = tensor<string, []>("@model_path/weights/weight.bin"), offset = tensor<uint64, []>(15616)))];
            tensor<fp16, [64]> const_42_to_fp16 = const()[name = tensor<string, []>("const_42_to_fp16"), val = tensor<fp16, [64]>(BLOBFILE(path = tensor<string, []>("@model_path/weights/weight.bin"), offset = tensor<uint64, []>(19776)))];
            tensor<fp16, [1, 64, 4096, 131]> model_conv2d_5_BiasAdd_cast = conv(bias = const_42_to_fp16, dilations = model_conv2d_5_Conv2Dx_dilations_0, groups = model_conv2d_5_Conv2Dx_groups_0, pad = model_conv2d_5_Conv2Dx_pad_0, pad_type = model_conv2d_5_Conv2Dx_pad_type_0, strides = model_conv2d_5_Conv2Dx_strides_0, weight = transpose_10_to_fp16, x = model_conv2d_4_BiasAdd_cast);
            tensor<fp16, []> elu_2_alpha_0_to_fp16 = const()[name = tensor<string, []>("elu_2_alpha_0_to_fp16"), val = tensor<fp16, []>(0x1.ac4p+0)];
            tensor<fp16, [1, 64, 4096, 131]> elu_2_cast = elu(alpha = elu_2_alpha_0_to_fp16, x = model_conv2d_5_BiasAdd_cast);
            tensor<fp16, []> model_activation_1_Selu_y_0_to_fp16 = const()[name = tensor<string, []>("model_activation_1_Selu_y_0_to_fp16"), val = tensor<fp16, []>(0x1.0dp+0)];
            tensor<fp16, [1, 64, 4096, 131]> model_activation_1_Selu_cast = mul(x = elu_2_cast, y = model_activation_1_Selu_y_0_to_fp16);
            tensor<string, []> model_conv2d_6_Conv2Dx_pad_type_0 = const()[name = tensor<string, []>("model_conv2d_6_Conv2Dx_pad_type_0"), val = tensor<string, []>("same")];
            tensor<int32, [2]> model_conv2d_6_Conv2Dx_strides_0 = const()[name = tensor<string, []>("model_conv2d_6_Conv2Dx_strides_0"), val = tensor<int32, [2]>([1, 1])];
            tensor<int32, [2]> model_conv2d_6_Conv2Dx_dilations_0 = const()[name = tensor<string, []>("model_conv2d_6_Conv2Dx_dilations_0"), val = tensor<int32, [2]>([1, 1])];
            tensor<int32, []> model_conv2d_6_Conv2Dx_groups_0 = const()[name = tensor<string, []>("model_conv2d_6_Conv2Dx_groups_0"), val = tensor<int32, []>(1)];
            tensor<int32, [4]> model_conv2d_6_Conv2Dx_pad_0 = const()[name = tensor<string, []>("model_conv2d_6_Conv2Dx_pad_0"), val = tensor<int32, [4]>([0, 0, 0, 0])];
            tensor<fp16, [32, 64, 1, 1]> transpose_12_to_fp16 = const()[name = tensor<string, []>("transpose_12_to_fp16"), val = tensor<fp16, [32, 64, 1, 1]>(BLOBFILE(path = tensor<string, []>("@model_path/weights/weight.bin"), offset = tensor<uint64, []>(19968)))];
            tensor<fp16, [32]> const_43_to_fp16 = const()[name = tensor<string, []>("const_43_to_fp16"), val = tensor<fp16, [32]>(BLOBFILE(path = tensor<string, []>("@model_path/weights/weight.bin"), offset = tensor<uint64, []>(24128)))];
            tensor<fp16, [1, 32, 4096, 131]> model_conv2d_6_BiasAdd_cast = conv(bias = const_43_to_fp16, dilations = model_conv2d_6_Conv2Dx_dilations_0, groups = model_conv2d_6_Conv2Dx_groups_0, pad = model_conv2d_6_Conv2Dx_pad_0, pad_type = model_conv2d_6_Conv2Dx_pad_type_0, strides = model_conv2d_6_Conv2Dx_strides_0, weight = transpose_12_to_fp16, x = model_activation_1_Selu_cast);
            tensor<fp16, [1, 32, 4096, 131]> model_add_1_add_cast = add(x = model_conv2d_6_BiasAdd_cast, y = model_add_add_cast);
            tensor<string, []> model_conv2d_7_Conv2Dx_pad_type_0 = const()[name = tensor<string, []>("model_conv2d_7_Conv2Dx_pad_type_0"), val = tensor<string, []>("same")];
            tensor<int32, [2]> model_conv2d_7_Conv2Dx_strides_0 = const()[name = tensor<string, []>("model_conv2d_7_Conv2Dx_strides_0"), val = tensor<int32, [2]>([1, 1])];
            tensor<int32, [2]> model_conv2d_7_Conv2Dx_dilations_0 = const()[name = tensor<string, []>("model_conv2d_7_Conv2Dx_dilations_0"), val = tensor<int32, [2]>([1, 1])];
            tensor<int32, []> model_conv2d_7_Conv2Dx_groups_0 = const()[name = tensor<string, []>("model_conv2d_7_Conv2Dx_groups_0"), val = tensor<int32, []>(32)];
            tensor<int32, [4]> model_conv2d_7_Conv2Dx_pad_0 = const()[name = tensor<string, []>("model_conv2d_7_Conv2Dx_pad_0"), val = tensor<int32, [4]>([0, 0, 0, 0])];
            tensor<fp16, [32, 1, 7, 7]> transpose_14_to_fp16 = const()[name = tensor<string, []>("transpose_14_to_fp16"), val = tensor<fp16, [32, 1, 7, 7]>(BLOBFILE(path = tensor<string, []>("@model_path/weights/weight.bin"), offset = tensor<uint64, []>(24256)))];
            tensor<fp16, [32]> const_44_to_fp16 = const()[name = tensor<string, []>("const_44_to_fp16"), val = tensor<fp16, [32]>(BLOBFILE(path = tensor<string, []>("@model_path/weights/weight.bin"), offset = tensor<uint64, []>(27456)))];
            tensor<fp16, [1, 32, 4096, 131]> model_conv2d_7_BiasAdd_cast = conv(bias = const_44_to_fp16, dilations = model_conv2d_7_Conv2Dx_dilations_0, groups = model_conv2d_7_Conv2Dx_groups_0, pad = model_conv2d_7_Conv2Dx_pad_0, pad_type = model_conv2d_7_Conv2Dx_pad_type_0, strides = model_conv2d_7_Conv2Dx_strides_0, weight = transpose_14_to_fp16, x = model_add_1_add_cast);
            tensor<string, []> model_conv2d_8_Conv2Dx_pad_type_0 = const()[name = tensor<string, []>("model_conv2d_8_Conv2Dx_pad_type_0"), val = tensor<string, []>("same")];
            tensor<int32, [2]> model_conv2d_8_Conv2Dx_strides_0 = const()[name = tensor<string, []>("model_conv2d_8_Conv2Dx_strides_0"), val = tensor<int32, [2]>([1, 1])];
            tensor<int32, [2]> model_conv2d_8_Conv2Dx_dilations_0 = const()[name = tensor<string, []>("model_conv2d_8_Conv2Dx_dilations_0"), val = tensor<int32, [2]>([1, 1])];
            tensor<int32, []> model_conv2d_8_Conv2Dx_groups_0 = const()[name = tensor<string, []>("model_conv2d_8_Conv2Dx_groups_0"), val = tensor<int32, []>(1)];
            tensor<int32, [4]> model_conv2d_8_Conv2Dx_pad_0 = const()[name = tensor<string, []>("model_conv2d_8_Conv2Dx_pad_0"), val = tensor<int32, [4]>([0, 0, 0, 0])];
            tensor<fp16, [64, 32, 1, 1]> transpose_16_to_fp16 = const()[name = tensor<string, []>("transpose_16_to_fp16"), val = tensor<fp16, [64, 32, 1, 1]>(BLOBFILE(path = tensor<string, []>("@model_path/weights/weight.bin"), offset = tensor<uint64, []>(27584)))];
            tensor<fp16, [64]> const_45_to_fp16 = const()[name = tensor<string, []>("const_45_to_fp16"), val = tensor<fp16, [64]>(BLOBFILE(path = tensor<string, []>("@model_path/weights/weight.bin"), offset = tensor<uint64, []>(31744)))];
            tensor<fp16, [1, 64, 4096, 131]> model_conv2d_8_BiasAdd_cast = conv(bias = const_45_to_fp16, dilations = model_conv2d_8_Conv2Dx_dilations_0, groups = model_conv2d_8_Conv2Dx_groups_0, pad = model_conv2d_8_Conv2Dx_pad_0, pad_type = model_conv2d_8_Conv2Dx_pad_type_0, strides = model_conv2d_8_Conv2Dx_strides_0, weight = transpose_16_to_fp16, x = model_conv2d_7_BiasAdd_cast);
            tensor<fp16, []> elu_3_alpha_0_to_fp16 = const()[name = tensor<string, []>("elu_3_alpha_0_to_fp16"), val = tensor<fp16, []>(0x1.ac4p+0)];
            tensor<fp16, [1, 64, 4096, 131]> elu_3_cast = elu(alpha = elu_3_alpha_0_to_fp16, x = model_conv2d_8_BiasAdd_cast);
            tensor<fp16, []> model_activation_2_Selu_y_0_to_fp16 = const()[name = tensor<string, []>("model_activation_2_Selu_y_0_to_fp16"), val = tensor<fp16, []>(0x1.0dp+0)];
            tensor<fp16, [1, 64, 4096, 131]> model_activation_2_Selu_cast = mul(x = elu_3_cast, y = model_activation_2_Selu_y_0_to_fp16);
            tensor<string, []> model_conv2d_9_Conv2Dx_pad_type_0 = const()[name = tensor<string, []>("model_conv2d_9_Conv2Dx_pad_type_0"), val = tensor<string, []>("same")];
            tensor<int32, [2]> model_conv2d_9_Conv2Dx_strides_0 = const()[name = tensor<string, []>("model_conv2d_9_Conv2Dx_strides_0"), val = tensor<int32, [2]>([1, 1])];
            tensor<int32, [2]> model_conv2d_9_Conv2Dx_dilations_0 = const()[name = tensor<string, []>("model_conv2d_9_Conv2Dx_dilations_0"), val = tensor<int32, [2]>([1, 1])];
            tensor<int32, []> model_conv2d_9_Conv2Dx_groups_0 = const()[name = tensor<string, []>("model_conv2d_9_Conv2Dx_groups_0"), val = tensor<int32, []>(1)];
            tensor<int32, [4]> model_conv2d_9_Conv2Dx_pad_0 = const()[name = tensor<string, []>("model_conv2d_9_Conv2Dx_pad_0"), val = tensor<int32, [4]>([0, 0, 0, 0])];
            tensor<fp16, [32, 64, 1, 1]> transpose_18_to_fp16 = const()[name = tensor<string, []>("transpose_18_to_fp16"), val = tensor<fp16, [32, 64, 1, 1]>(BLOBFILE(path = tensor<string, []>("@model_path/weights/weight.bin"), offset = tensor<uint64, []>(31936)))];
            tensor<fp16, [32]> const_46_to_fp16 = const()[name = tensor<string, []>("const_46_to_fp16"), val = tensor<fp16, [32]>(BLOBFILE(path = tensor<string, []>("@model_path/weights/weight.bin"), offset = tensor<uint64, []>(36096)))];
            tensor<fp16, [1, 32, 4096, 131]> model_conv2d_9_BiasAdd_cast = conv(bias = const_46_to_fp16, dilations = model_conv2d_9_Conv2Dx_dilations_0, groups = model_conv2d_9_Conv2Dx_groups_0, pad = model_conv2d_9_Conv2Dx_pad_0, pad_type = model_conv2d_9_Conv2Dx_pad_type_0, strides = model_conv2d_9_Conv2Dx_strides_0, weight = transpose_18_to_fp16, x = model_activation_2_Selu_cast);
            tensor<fp16, [1, 32, 4096, 131]> model_add_2_add_cast = add(x = model_conv2d_9_BiasAdd_cast, y = model_add_1_add_cast);
            tensor<int32, [2]> max_pool_0_kernel_sizes_0 = const()[name = tensor<string, []>("max_pool_0_kernel_sizes_0"), val = tensor<int32, [2]>([1, 2])];
            tensor<int32, [2]> max_pool_0_strides_0 = const()[name = tensor<string, []>("max_pool_0_strides_0"), val = tensor<int32, [2]>([1, 2])];
            tensor<string, []> max_pool_0_pad_type_0 = const()[name = tensor<string, []>("max_pool_0_pad_type_0"), val = tensor<string, []>("valid")];
            tensor<int32, [4]> max_pool_0_pad_0 = const()[name = tensor<string, []>("max_pool_0_pad_0"), val = tensor<int32, [4]>([0, 0, 0, 0])];
            tensor<bool, []> max_pool_0_ceil_mode_0 = const()[name = tensor<string, []>("max_pool_0_ceil_mode_0"), val = tensor<bool, []>(false)];
            tensor<fp16, [1, 32, 4096, 65]> max_pool_0_cast = max_pool(ceil_mode = max_pool_0_ceil_mode_0, kernel_sizes = max_pool_0_kernel_sizes_0, pad = max_pool_0_pad_0, pad_type = max_pool_0_pad_type_0, strides = max_pool_0_strides_0, x = model_add_2_add_cast);
            tensor<string, []> model_conv2d_10_Conv2Dx_pad_type_0 = const()[name = tensor<string, []>("model_conv2d_10_Conv2Dx_pad_type_0"), val = tensor<string, []>("same")];
            tensor<int32, [2]> model_conv2d_10_Conv2Dx_strides_0 = const()[name = tensor<string, []>("model_conv2d_10_Conv2Dx_strides_0"), val = tensor<int32, [2]>([1, 1])];
            tensor<int32, [2]> model_conv2d_10_Conv2Dx_dilations_0 = const()[name = tensor<string, []>("model_conv2d_10_Conv2Dx_dilations_0"), val = tensor<int32, [2]>([1, 1])];
            tensor<int32, []> model_conv2d_10_Conv2Dx_groups_0 = const()[name = tensor<string, []>("model_conv2d_10_Conv2Dx_groups_0"), val = tensor<int32, []>(32)];
            tensor<int32, [4]> model_conv2d_10_Conv2Dx_pad_0 = const()[name = tensor<string, []>("model_conv2d_10_Conv2Dx_pad_0"), val = tensor<int32, [4]>([0, 0, 0, 0])];
            tensor<fp16, [32, 1, 7, 7]> transpose_21_to_fp16 = const()[name = tensor<string, []>("transpose_21_to_fp16"), val = tensor<fp16, [32, 1, 7, 7]>(BLOBFILE(path = tensor<string, []>("@model_path/weights/weight.bin"), offset = tensor<uint64, []>(36224)))];
            tensor<fp16, [32]> const_47_to_fp16 = const()[name = tensor<string, []>("const_47_to_fp16"), val = tensor<fp16, [32]>(BLOBFILE(path = tensor<string, []>("@model_path/weights/weight.bin"), offset = tensor<uint64, []>(39424)))];
            tensor<fp16, [1, 32, 4096, 65]> model_conv2d_10_BiasAdd_cast = conv(bias = const_47_to_fp16, dilations = model_conv2d_10_Conv2Dx_dilations_0, groups = model_conv2d_10_Conv2Dx_groups_0, pad = model_conv2d_10_Conv2Dx_pad_0, pad_type = model_conv2d_10_Conv2Dx_pad_type_0, strides = model_conv2d_10_Conv2Dx_strides_0, weight = transpose_21_to_fp16, x = max_pool_0_cast);
            tensor<string, []> model_conv2d_11_Conv2Dx_pad_type_0 = const()[name = tensor<string, []>("model_conv2d_11_Conv2Dx_pad_type_0"), val = tensor<string, []>("same")];
            tensor<int32, [2]> model_conv2d_11_Conv2Dx_strides_0 = const()[name = tensor<string, []>("model_conv2d_11_Conv2Dx_strides_0"), val = tensor<int32, [2]>([1, 1])];
            tensor<int32, [2]> model_conv2d_11_Conv2Dx_dilations_0 = const()[name = tensor<string, []>("model_conv2d_11_Conv2Dx_dilations_0"), val = tensor<int32, [2]>([1, 1])];
            tensor<int32, []> model_conv2d_11_Conv2Dx_groups_0 = const()[name = tensor<string, []>("model_conv2d_11_Conv2Dx_groups_0"), val = tensor<int32, []>(1)];
            tensor<int32, [4]> model_conv2d_11_Conv2Dx_pad_0 = const()[name = tensor<string, []>("model_conv2d_11_Conv2Dx_pad_0"), val = tensor<int32, [4]>([0, 0, 0, 0])];
            tensor<fp16, [64, 32, 1, 1]> transpose_23_to_fp16 = const()[name = tensor<string, []>("transpose_23_to_fp16"), val = tensor<fp16, [64, 32, 1, 1]>(BLOBFILE(path = tensor<string, []>("@model_path/weights/weight.bin"), offset = tensor<uint64, []>(39552)))];
            tensor<fp16, [64]> const_48_to_fp16 = const()[name = tensor<string, []>("const_48_to_fp16"), val = tensor<fp16, [64]>(BLOBFILE(path = tensor<string, []>("@model_path/weights/weight.bin"), offset = tensor<uint64, []>(43712)))];
            tensor<fp16, [1, 64, 4096, 65]> model_conv2d_11_BiasAdd_cast = conv(bias = const_48_to_fp16, dilations = model_conv2d_11_Conv2Dx_dilations_0, groups = model_conv2d_11_Conv2Dx_groups_0, pad = model_conv2d_11_Conv2Dx_pad_0, pad_type = model_conv2d_11_Conv2Dx_pad_type_0, strides = model_conv2d_11_Conv2Dx_strides_0, weight = transpose_23_to_fp16, x = model_conv2d_10_BiasAdd_cast);
            tensor<fp16, []> elu_4_alpha_0_to_fp16 = const()[name = tensor<string, []>("elu_4_alpha_0_to_fp16"), val = tensor<fp16, []>(0x1.ac4p+0)];
            tensor<fp16, [1, 64, 4096, 65]> elu_4_cast = elu(alpha = elu_4_alpha_0_to_fp16, x = model_conv2d_11_BiasAdd_cast);
            tensor<fp16, []> model_activation_3_Selu_y_0_to_fp16 = const()[name = tensor<string, []>("model_activation_3_Selu_y_0_to_fp16"), val = tensor<fp16, []>(0x1.0dp+0)];
            tensor<fp16, [1, 64, 4096, 65]> model_activation_3_Selu_cast = mul(x = elu_4_cast, y = model_activation_3_Selu_y_0_to_fp16);
            tensor<string, []> model_conv2d_12_Conv2Dx_pad_type_0 = const()[name = tensor<string, []>("model_conv2d_12_Conv2Dx_pad_type_0"), val = tensor<string, []>("same")];
            tensor<int32, [2]> model_conv2d_12_Conv2Dx_strides_0 = const()[name = tensor<string, []>("model_conv2d_12_Conv2Dx_strides_0"), val = tensor<int32, [2]>([1, 1])];
            tensor<int32, [2]> model_conv2d_12_Conv2Dx_dilations_0 = const()[name = tensor<string, []>("model_conv2d_12_Conv2Dx_dilations_0"), val = tensor<int32, [2]>([1, 1])];
            tensor<int32, []> model_conv2d_12_Conv2Dx_groups_0 = const()[name = tensor<string, []>("model_conv2d_12_Conv2Dx_groups_0"), val = tensor<int32, []>(1)];
            tensor<int32, [4]> model_conv2d_12_Conv2Dx_pad_0 = const()[name = tensor<string, []>("model_conv2d_12_Conv2Dx_pad_0"), val = tensor<int32, [4]>([0, 0, 0, 0])];
            tensor<fp16, [32, 64, 1, 1]> transpose_25_to_fp16 = const()[name = tensor<string, []>("transpose_25_to_fp16"), val = tensor<fp16, [32, 64, 1, 1]>(BLOBFILE(path = tensor<string, []>("@model_path/weights/weight.bin"), offset = tensor<uint64, []>(43904)))];
            tensor<fp16, [32]> const_49_to_fp16 = const()[name = tensor<string, []>("const_49_to_fp16"), val = tensor<fp16, [32]>(BLOBFILE(path = tensor<string, []>("@model_path/weights/weight.bin"), offset = tensor<uint64, []>(48064)))];
            tensor<fp16, [1, 32, 4096, 65]> model_conv2d_12_BiasAdd_cast = conv(bias = const_49_to_fp16, dilations = model_conv2d_12_Conv2Dx_dilations_0, groups = model_conv2d_12_Conv2Dx_groups_0, pad = model_conv2d_12_Conv2Dx_pad_0, pad_type = model_conv2d_12_Conv2Dx_pad_type_0, strides = model_conv2d_12_Conv2Dx_strides_0, weight = transpose_25_to_fp16, x = model_activation_3_Selu_cast);
            tensor<fp16, [1, 32, 4096, 65]> model_add_3_add_cast = add(x = model_conv2d_12_BiasAdd_cast, y = max_pool_0_cast);
            tensor<string, []> model_conv2d_13_Conv2Dx_pad_type_0 = const()[name = tensor<string, []>("model_conv2d_13_Conv2Dx_pad_type_0"), val = tensor<string, []>("same")];
            tensor<int32, [2]> model_conv2d_13_Conv2Dx_strides_0 = const()[name = tensor<string, []>("model_conv2d_13_Conv2Dx_strides_0"), val = tensor<int32, [2]>([1, 1])];
            tensor<int32, [2]> model_conv2d_13_Conv2Dx_dilations_0 = const()[name = tensor<string, []>("model_conv2d_13_Conv2Dx_dilations_0"), val = tensor<int32, [2]>([1, 1])];
            tensor<int32, []> model_conv2d_13_Conv2Dx_groups_0 = const()[name = tensor<string, []>("model_conv2d_13_Conv2Dx_groups_0"), val = tensor<int32, []>(32)];
            tensor<int32, [4]> model_conv2d_13_Conv2Dx_pad_0 = const()[name = tensor<string, []>("model_conv2d_13_Conv2Dx_pad_0"), val = tensor<int32, [4]>([0, 0, 0, 0])];
            tensor<fp16, [32, 1, 7, 7]> transpose_27_to_fp16 = const()[name = tensor<string, []>("transpose_27_to_fp16"), val = tensor<fp16, [32, 1, 7, 7]>(BLOBFILE(path = tensor<string, []>("@model_path/weights/weight.bin"), offset = tensor<uint64, []>(48192)))];
            tensor<fp16, [32]> const_50_to_fp16 = const()[name = tensor<string, []>("const_50_to_fp16"), val = tensor<fp16, [32]>(BLOBFILE(path = tensor<string, []>("@model_path/weights/weight.bin"), offset = tensor<uint64, []>(51392)))];
            tensor<fp16, [1, 32, 4096, 65]> model_conv2d_13_BiasAdd_cast = conv(bias = const_50_to_fp16, dilations = model_conv2d_13_Conv2Dx_dilations_0, groups = model_conv2d_13_Conv2Dx_groups_0, pad = model_conv2d_13_Conv2Dx_pad_0, pad_type = model_conv2d_13_Conv2Dx_pad_type_0, strides = model_conv2d_13_Conv2Dx_strides_0, weight = transpose_27_to_fp16, x = model_add_3_add_cast);
            tensor<string, []> model_conv2d_14_Conv2Dx_pad_type_0 = const()[name = tensor<string, []>("model_conv2d_14_Conv2Dx_pad_type_0"), val = tensor<string, []>("same")];
            tensor<int32, [2]> model_conv2d_14_Conv2Dx_strides_0 = const()[name = tensor<string, []>("model_conv2d_14_Conv2Dx_strides_0"), val = tensor<int32, [2]>([1, 1])];
            tensor<int32, [2]> model_conv2d_14_Conv2Dx_dilations_0 = const()[name = tensor<string, []>("model_conv2d_14_Conv2Dx_dilations_0"), val = tensor<int32, [2]>([1, 1])];
            tensor<int32, []> model_conv2d_14_Conv2Dx_groups_0 = const()[name = tensor<string, []>("model_conv2d_14_Conv2Dx_groups_0"), val = tensor<int32, []>(1)];
            tensor<int32, [4]> model_conv2d_14_Conv2Dx_pad_0 = const()[name = tensor<string, []>("model_conv2d_14_Conv2Dx_pad_0"), val = tensor<int32, [4]>([0, 0, 0, 0])];
            tensor<fp16, [64, 32, 1, 1]> transpose_29_to_fp16 = const()[name = tensor<string, []>("transpose_29_to_fp16"), val = tensor<fp16, [64, 32, 1, 1]>(BLOBFILE(path = tensor<string, []>("@model_path/weights/weight.bin"), offset = tensor<uint64, []>(51520)))];
            tensor<fp16, [64]> const_51_to_fp16 = const()[name = tensor<string, []>("const_51_to_fp16"), val = tensor<fp16, [64]>(BLOBFILE(path = tensor<string, []>("@model_path/weights/weight.bin"), offset = tensor<uint64, []>(55680)))];
            tensor<fp16, [1, 64, 4096, 65]> model_conv2d_14_BiasAdd_cast = conv(bias = const_51_to_fp16, dilations = model_conv2d_14_Conv2Dx_dilations_0, groups = model_conv2d_14_Conv2Dx_groups_0, pad = model_conv2d_14_Conv2Dx_pad_0, pad_type = model_conv2d_14_Conv2Dx_pad_type_0, strides = model_conv2d_14_Conv2Dx_strides_0, weight = transpose_29_to_fp16, x = model_conv2d_13_BiasAdd_cast);
            tensor<fp16, []> elu_5_alpha_0_to_fp16 = const()[name = tensor<string, []>("elu_5_alpha_0_to_fp16"), val = tensor<fp16, []>(0x1.ac4p+0)];
            tensor<fp16, [1, 64, 4096, 65]> elu_5_cast = elu(alpha = elu_5_alpha_0_to_fp16, x = model_conv2d_14_BiasAdd_cast);
            tensor<fp16, []> model_activation_4_Selu_y_0_to_fp16 = const()[name = tensor<string, []>("model_activation_4_Selu_y_0_to_fp16"), val = tensor<fp16, []>(0x1.0dp+0)];
            tensor<fp16, [1, 64, 4096, 65]> model_activation_4_Selu_cast = mul(x = elu_5_cast, y = model_activation_4_Selu_y_0_to_fp16);
            tensor<string, []> model_conv2d_15_Conv2Dx_pad_type_0 = const()[name = tensor<string, []>("model_conv2d_15_Conv2Dx_pad_type_0"), val = tensor<string, []>("same")];
            tensor<int32, [2]> model_conv2d_15_Conv2Dx_strides_0 = const()[name = tensor<string, []>("model_conv2d_15_Conv2Dx_strides_0"), val = tensor<int32, [2]>([1, 1])];
            tensor<int32, [2]> model_conv2d_15_Conv2Dx_dilations_0 = const()[name = tensor<string, []>("model_conv2d_15_Conv2Dx_dilations_0"), val = tensor<int32, [2]>([1, 1])];
            tensor<int32, []> model_conv2d_15_Conv2Dx_groups_0 = const()[name = tensor<string, []>("model_conv2d_15_Conv2Dx_groups_0"), val = tensor<int32, []>(1)];
            tensor<int32, [4]> model_conv2d_15_Conv2Dx_pad_0 = const()[name = tensor<string, []>("model_conv2d_15_Conv2Dx_pad_0"), val = tensor<int32, [4]>([0, 0, 0, 0])];
            tensor<fp16, [32, 64, 1, 1]> transpose_31_to_fp16 = const()[name = tensor<string, []>("transpose_31_to_fp16"), val = tensor<fp16, [32, 64, 1, 1]>(BLOBFILE(path = tensor<string, []>("@model_path/weights/weight.bin"), offset = tensor<uint64, []>(55872)))];
            tensor<fp16, [32]> const_52_to_fp16 = const()[name = tensor<string, []>("const_52_to_fp16"), val = tensor<fp16, [32]>(BLOBFILE(path = tensor<string, []>("@model_path/weights/weight.bin"), offset = tensor<uint64, []>(60032)))];
            tensor<fp16, [1, 32, 4096, 65]> model_conv2d_15_BiasAdd_cast = conv(bias = const_52_to_fp16, dilations = model_conv2d_15_Conv2Dx_dilations_0, groups = model_conv2d_15_Conv2Dx_groups_0, pad = model_conv2d_15_Conv2Dx_pad_0, pad_type = model_conv2d_15_Conv2Dx_pad_type_0, strides = model_conv2d_15_Conv2Dx_strides_0, weight = transpose_31_to_fp16, x = model_activation_4_Selu_cast);
            tensor<fp16, [1, 32, 4096, 65]> model_add_4_add_cast = add(x = model_conv2d_15_BiasAdd_cast, y = model_add_3_add_cast);
            tensor<string, []> model_conv2d_16_Conv2Dx_pad_type_0 = const()[name = tensor<string, []>("model_conv2d_16_Conv2Dx_pad_type_0"), val = tensor<string, []>("same")];
            tensor<int32, [2]> model_conv2d_16_Conv2Dx_strides_0 = const()[name = tensor<string, []>("model_conv2d_16_Conv2Dx_strides_0"), val = tensor<int32, [2]>([1, 1])];
            tensor<int32, [2]> model_conv2d_16_Conv2Dx_dilations_0 = const()[name = tensor<string, []>("model_conv2d_16_Conv2Dx_dilations_0"), val = tensor<int32, [2]>([1, 1])];
            tensor<int32, []> model_conv2d_16_Conv2Dx_groups_0 = const()[name = tensor<string, []>("model_conv2d_16_Conv2Dx_groups_0"), val = tensor<int32, []>(32)];
            tensor<int32, [4]> model_conv2d_16_Conv2Dx_pad_0 = const()[name = tensor<string, []>("model_conv2d_16_Conv2Dx_pad_0"), val = tensor<int32, [4]>([0, 0, 0, 0])];
            tensor<fp16, [32, 1, 7, 7]> transpose_33_to_fp16 = const()[name = tensor<string, []>("transpose_33_to_fp16"), val = tensor<fp16, [32, 1, 7, 7]>(BLOBFILE(path = tensor<string, []>("@model_path/weights/weight.bin"), offset = tensor<uint64, []>(60160)))];
            tensor<fp16, [32]> const_53_to_fp16 = const()[name = tensor<string, []>("const_53_to_fp16"), val = tensor<fp16, [32]>(BLOBFILE(path = tensor<string, []>("@model_path/weights/weight.bin"), offset = tensor<uint64, []>(63360)))];
            tensor<fp16, [1, 32, 4096, 65]> model_conv2d_16_BiasAdd_cast = conv(bias = const_53_to_fp16, dilations = model_conv2d_16_Conv2Dx_dilations_0, groups = model_conv2d_16_Conv2Dx_groups_0, pad = model_conv2d_16_Conv2Dx_pad_0, pad_type = model_conv2d_16_Conv2Dx_pad_type_0, strides = model_conv2d_16_Conv2Dx_strides_0, weight = transpose_33_to_fp16, x = model_add_4_add_cast);
            tensor<string, []> model_conv2d_17_Conv2Dx_pad_type_0 = const()[name = tensor<string, []>("model_conv2d_17_Conv2Dx_pad_type_0"), val = tensor<string, []>("same")];
            tensor<int32, [2]> model_conv2d_17_Conv2Dx_strides_0 = const()[name = tensor<string, []>("model_conv2d_17_Conv2Dx_strides_0"), val = tensor<int32, [2]>([1, 1])];
            tensor<int32, [2]> model_conv2d_17_Conv2Dx_dilations_0 = const()[name = tensor<string, []>("model_conv2d_17_Conv2Dx_dilations_0"), val = tensor<int32, [2]>([1, 1])];
            tensor<int32, []> model_conv2d_17_Conv2Dx_groups_0 = const()[name = tensor<string, []>("model_conv2d_17_Conv2Dx_groups_0"), val = tensor<int32, []>(1)];
            tensor<int32, [4]> model_conv2d_17_Conv2Dx_pad_0 = const()[name = tensor<string, []>("model_conv2d_17_Conv2Dx_pad_0"), val = tensor<int32, [4]>([0, 0, 0, 0])];
            tensor<fp16, [64, 32, 1, 1]> transpose_35_to_fp16 = const()[name = tensor<string, []>("transpose_35_to_fp16"), val = tensor<fp16, [64, 32, 1, 1]>(BLOBFILE(path = tensor<string, []>("@model_path/weights/weight.bin"), offset = tensor<uint64, []>(63488)))];
            tensor<fp16, [64]> const_54_to_fp16 = const()[name = tensor<string, []>("const_54_to_fp16"), val = tensor<fp16, [64]>(BLOBFILE(path = tensor<string, []>("@model_path/weights/weight.bin"), offset = tensor<uint64, []>(67648)))];
            tensor<fp16, [1, 64, 4096, 65]> model_conv2d_17_BiasAdd_cast = conv(bias = const_54_to_fp16, dilations = model_conv2d_17_Conv2Dx_dilations_0, groups = model_conv2d_17_Conv2Dx_groups_0, pad = model_conv2d_17_Conv2Dx_pad_0, pad_type = model_conv2d_17_Conv2Dx_pad_type_0, strides = model_conv2d_17_Conv2Dx_strides_0, weight = transpose_35_to_fp16, x = model_conv2d_16_BiasAdd_cast);
            tensor<fp16, []> elu_6_alpha_0_to_fp16 = const()[name = tensor<string, []>("elu_6_alpha_0_to_fp16"), val = tensor<fp16, []>(0x1.ac4p+0)];
            tensor<fp16, [1, 64, 4096, 65]> elu_6_cast = elu(alpha = elu_6_alpha_0_to_fp16, x = model_conv2d_17_BiasAdd_cast);
            tensor<fp16, []> model_activation_5_Selu_y_0_to_fp16 = const()[name = tensor<string, []>("model_activation_5_Selu_y_0_to_fp16"), val = tensor<fp16, []>(0x1.0dp+0)];
            tensor<fp16, [1, 64, 4096, 65]> model_activation_5_Selu_cast = mul(x = elu_6_cast, y = model_activation_5_Selu_y_0_to_fp16);
            tensor<string, []> model_conv2d_18_Conv2Dx_pad_type_0 = const()[name = tensor<string, []>("model_conv2d_18_Conv2Dx_pad_type_0"), val = tensor<string, []>("same")];
            tensor<int32, [2]> model_conv2d_18_Conv2Dx_strides_0 = const()[name = tensor<string, []>("model_conv2d_18_Conv2Dx_strides_0"), val = tensor<int32, [2]>([1, 1])];
            tensor<int32, [2]> model_conv2d_18_Conv2Dx_dilations_0 = const()[name = tensor<string, []>("model_conv2d_18_Conv2Dx_dilations_0"), val = tensor<int32, [2]>([1, 1])];
            tensor<int32, []> model_conv2d_18_Conv2Dx_groups_0 = const()[name = tensor<string, []>("model_conv2d_18_Conv2Dx_groups_0"), val = tensor<int32, []>(1)];
            tensor<int32, [4]> model_conv2d_18_Conv2Dx_pad_0 = const()[name = tensor<string, []>("model_conv2d_18_Conv2Dx_pad_0"), val = tensor<int32, [4]>([0, 0, 0, 0])];
            tensor<fp16, [32, 64, 1, 1]> transpose_37_to_fp16 = const()[name = tensor<string, []>("transpose_37_to_fp16"), val = tensor<fp16, [32, 64, 1, 1]>(BLOBFILE(path = tensor<string, []>("@model_path/weights/weight.bin"), offset = tensor<uint64, []>(67840)))];
            tensor<fp16, [32]> const_55_to_fp16 = const()[name = tensor<string, []>("const_55_to_fp16"), val = tensor<fp16, [32]>(BLOBFILE(path = tensor<string, []>("@model_path/weights/weight.bin"), offset = tensor<uint64, []>(72000)))];
            tensor<fp16, [1, 32, 4096, 65]> model_conv2d_18_BiasAdd_cast = conv(bias = const_55_to_fp16, dilations = model_conv2d_18_Conv2Dx_dilations_0, groups = model_conv2d_18_Conv2Dx_groups_0, pad = model_conv2d_18_Conv2Dx_pad_0, pad_type = model_conv2d_18_Conv2Dx_pad_type_0, strides = model_conv2d_18_Conv2Dx_strides_0, weight = transpose_37_to_fp16, x = model_activation_5_Selu_cast);
            tensor<fp16, [1, 32, 4096, 65]> model_add_5_add_cast = add(x = model_conv2d_18_BiasAdd_cast, y = model_add_4_add_cast);
            tensor<int32, [2]> max_pool_1_kernel_sizes_0 = const()[name = tensor<string, []>("max_pool_1_kernel_sizes_0"), val = tensor<int32, [2]>([1, 2])];
            tensor<int32, [2]> max_pool_1_strides_0 = const()[name = tensor<string, []>("max_pool_1_strides_0"), val = tensor<int32, [2]>([1, 2])];
            tensor<string, []> max_pool_1_pad_type_0 = const()[name = tensor<string, []>("max_pool_1_pad_type_0"), val = tensor<string, []>("valid")];
            tensor<int32, [4]> max_pool_1_pad_0 = const()[name = tensor<string, []>("max_pool_1_pad_0"), val = tensor<int32, [4]>([0, 0, 0, 0])];
            tensor<bool, []> max_pool_1_ceil_mode_0 = const()[name = tensor<string, []>("max_pool_1_ceil_mode_0"), val = tensor<bool, []>(false)];
            tensor<fp16, [1, 32, 4096, 32]> max_pool_1_cast = max_pool(ceil_mode = max_pool_1_ceil_mode_0, kernel_sizes = max_pool_1_kernel_sizes_0, pad = max_pool_1_pad_0, pad_type = max_pool_1_pad_type_0, strides = max_pool_1_strides_0, x = model_add_5_add_cast);
            tensor<string, []> model_conv2d_19_Conv2Dx_pad_type_0 = const()[name = tensor<string, []>("model_conv2d_19_Conv2Dx_pad_type_0"), val = tensor<string, []>("same")];
            tensor<int32, [2]> model_conv2d_19_Conv2Dx_strides_0 = const()[name = tensor<string, []>("model_conv2d_19_Conv2Dx_strides_0"), val = tensor<int32, [2]>([1, 1])];
            tensor<int32, [2]> model_conv2d_19_Conv2Dx_dilations_0 = const()[name = tensor<string, []>("model_conv2d_19_Conv2Dx_dilations_0"), val = tensor<int32, [2]>([1, 1])];
            tensor<int32, []> model_conv2d_19_Conv2Dx_groups_0 = const()[name = tensor<string, []>("model_conv2d_19_Conv2Dx_groups_0"), val = tensor<int32, []>(32)];
            tensor<int32, [4]> model_conv2d_19_Conv2Dx_pad_0 = const()[name = tensor<string, []>("model_conv2d_19_Conv2Dx_pad_0"), val = tensor<int32, [4]>([0, 0, 0, 0])];
            tensor<fp16, [32, 1, 7, 7]> transpose_40_to_fp16 = const()[name = tensor<string, []>("transpose_40_to_fp16"), val = tensor<fp16, [32, 1, 7, 7]>(BLOBFILE(path = tensor<string, []>("@model_path/weights/weight.bin"), offset = tensor<uint64, []>(72128)))];
            tensor<fp16, [32]> const_56_to_fp16 = const()[name = tensor<string, []>("const_56_to_fp16"), val = tensor<fp16, [32]>(BLOBFILE(path = tensor<string, []>("@model_path/weights/weight.bin"), offset = tensor<uint64, []>(75328)))];
            tensor<fp16, [1, 32, 4096, 32]> model_conv2d_19_BiasAdd_cast = conv(bias = const_56_to_fp16, dilations = model_conv2d_19_Conv2Dx_dilations_0, groups = model_conv2d_19_Conv2Dx_groups_0, pad = model_conv2d_19_Conv2Dx_pad_0, pad_type = model_conv2d_19_Conv2Dx_pad_type_0, strides = model_conv2d_19_Conv2Dx_strides_0, weight = transpose_40_to_fp16, x = max_pool_1_cast);
            tensor<string, []> model_conv2d_20_Conv2Dx_pad_type_0 = const()[name = tensor<string, []>("model_conv2d_20_Conv2Dx_pad_type_0"), val = tensor<string, []>("same")];
            tensor<int32, [2]> model_conv2d_20_Conv2Dx_strides_0 = const()[name = tensor<string, []>("model_conv2d_20_Conv2Dx_strides_0"), val = tensor<int32, [2]>([1, 1])];
            tensor<int32, [2]> model_conv2d_20_Conv2Dx_dilations_0 = const()[name = tensor<string, []>("model_conv2d_20_Conv2Dx_dilations_0"), val = tensor<int32, [2]>([1, 1])];
            tensor<int32, []> model_conv2d_20_Conv2Dx_groups_0 = const()[name = tensor<string, []>("model_conv2d_20_Conv2Dx_groups_0"), val = tensor<int32, []>(1)];
            tensor<int32, [4]> model_conv2d_20_Conv2Dx_pad_0 = const()[name = tensor<string, []>("model_conv2d_20_Conv2Dx_pad_0"), val = tensor<int32, [4]>([0, 0, 0, 0])];
            tensor<fp16, [64, 32, 1, 1]> transpose_42_to_fp16 = const()[name = tensor<string, []>("transpose_42_to_fp16"), val = tensor<fp16, [64, 32, 1, 1]>(BLOBFILE(path = tensor<string, []>("@model_path/weights/weight.bin"), offset = tensor<uint64, []>(75456)))];
            tensor<fp16, [64]> const_57_to_fp16 = const()[name = tensor<string, []>("const_57_to_fp16"), val = tensor<fp16, [64]>(BLOBFILE(path = tensor<string, []>("@model_path/weights/weight.bin"), offset = tensor<uint64, []>(79616)))];
            tensor<fp16, [1, 64, 4096, 32]> model_conv2d_20_BiasAdd_cast = conv(bias = const_57_to_fp16, dilations = model_conv2d_20_Conv2Dx_dilations_0, groups = model_conv2d_20_Conv2Dx_groups_0, pad = model_conv2d_20_Conv2Dx_pad_0, pad_type = model_conv2d_20_Conv2Dx_pad_type_0, strides = model_conv2d_20_Conv2Dx_strides_0, weight = transpose_42_to_fp16, x = model_conv2d_19_BiasAdd_cast);
            tensor<fp16, []> elu_7_alpha_0_to_fp16 = const()[name = tensor<string, []>("elu_7_alpha_0_to_fp16"), val = tensor<fp16, []>(0x1.ac4p+0)];
            tensor<fp16, [1, 64, 4096, 32]> elu_7_cast = elu(alpha = elu_7_alpha_0_to_fp16, x = model_conv2d_20_BiasAdd_cast);
            tensor<fp16, []> model_activation_6_Selu_y_0_to_fp16 = const()[name = tensor<string, []>("model_activation_6_Selu_y_0_to_fp16"), val = tensor<fp16, []>(0x1.0dp+0)];
            tensor<fp16, [1, 64, 4096, 32]> model_activation_6_Selu_cast = mul(x = elu_7_cast, y = model_activation_6_Selu_y_0_to_fp16);
            tensor<string, []> model_conv2d_21_Conv2Dx_pad_type_0 = const()[name = tensor<string, []>("model_conv2d_21_Conv2Dx_pad_type_0"), val = tensor<string, []>("same")];
            tensor<int32, [2]> model_conv2d_21_Conv2Dx_strides_0 = const()[name = tensor<string, []>("model_conv2d_21_Conv2Dx_strides_0"), val = tensor<int32, [2]>([1, 1])];
            tensor<int32, [2]> model_conv2d_21_Conv2Dx_dilations_0 = const()[name = tensor<string, []>("model_conv2d_21_Conv2Dx_dilations_0"), val = tensor<int32, [2]>([1, 1])];
            tensor<int32, []> model_conv2d_21_Conv2Dx_groups_0 = const()[name = tensor<string, []>("model_conv2d_21_Conv2Dx_groups_0"), val = tensor<int32, []>(1)];
            tensor<int32, [4]> model_conv2d_21_Conv2Dx_pad_0 = const()[name = tensor<string, []>("model_conv2d_21_Conv2Dx_pad_0"), val = tensor<int32, [4]>([0, 0, 0, 0])];
            tensor<fp16, [32, 64, 1, 1]> transpose_44_to_fp16 = const()[name = tensor<string, []>("transpose_44_to_fp16"), val = tensor<fp16, [32, 64, 1, 1]>(BLOBFILE(path = tensor<string, []>("@model_path/weights/weight.bin"), offset = tensor<uint64, []>(79808)))];
            tensor<fp16, [32]> const_58_to_fp16 = const()[name = tensor<string, []>("const_58_to_fp16"), val = tensor<fp16, [32]>(BLOBFILE(path = tensor<string, []>("@model_path/weights/weight.bin"), offset = tensor<uint64, []>(83968)))];
            tensor<fp16, [1, 32, 4096, 32]> model_conv2d_21_BiasAdd_cast = conv(bias = const_58_to_fp16, dilations = model_conv2d_21_Conv2Dx_dilations_0, groups = model_conv2d_21_Conv2Dx_groups_0, pad = model_conv2d_21_Conv2Dx_pad_0, pad_type = model_conv2d_21_Conv2Dx_pad_type_0, strides = model_conv2d_21_Conv2Dx_strides_0, weight = transpose_44_to_fp16, x = model_activation_6_Selu_cast);
            tensor<fp16, [1, 32, 4096, 32]> model_add_6_add_cast = add(x = model_conv2d_21_BiasAdd_cast, y = max_pool_1_cast);
            tensor<string, []> model_conv2d_22_Conv2Dx_pad_type_0 = const()[name = tensor<string, []>("model_conv2d_22_Conv2Dx_pad_type_0"), val = tensor<string, []>("same")];
            tensor<int32, [2]> model_conv2d_22_Conv2Dx_strides_0 = const()[name = tensor<string, []>("model_conv2d_22_Conv2Dx_strides_0"), val = tensor<int32, [2]>([1, 1])];
            tensor<int32, [2]> model_conv2d_22_Conv2Dx_dilations_0 = const()[name = tensor<string, []>("model_conv2d_22_Conv2Dx_dilations_0"), val = tensor<int32, [2]>([1, 1])];
            tensor<int32, []> model_conv2d_22_Conv2Dx_groups_0 = const()[name = tensor<string, []>("model_conv2d_22_Conv2Dx_groups_0"), val = tensor<int32, []>(32)];
            tensor<int32, [4]> model_conv2d_22_Conv2Dx_pad_0 = const()[name = tensor<string, []>("model_conv2d_22_Conv2Dx_pad_0"), val = tensor<int32, [4]>([0, 0, 0, 0])];
            tensor<fp16, [32, 1, 7, 7]> transpose_46_to_fp16 = const()[name = tensor<string, []>("transpose_46_to_fp16"), val = tensor<fp16, [32, 1, 7, 7]>(BLOBFILE(path = tensor<string, []>("@model_path/weights/weight.bin"), offset = tensor<uint64, []>(84096)))];
            tensor<fp16, [32]> const_59_to_fp16 = const()[name = tensor<string, []>("const_59_to_fp16"), val = tensor<fp16, [32]>(BLOBFILE(path = tensor<string, []>("@model_path/weights/weight.bin"), offset = tensor<uint64, []>(87296)))];
            tensor<fp16, [1, 32, 4096, 32]> model_conv2d_22_BiasAdd_cast = conv(bias = const_59_to_fp16, dilations = model_conv2d_22_Conv2Dx_dilations_0, groups = model_conv2d_22_Conv2Dx_groups_0, pad = model_conv2d_22_Conv2Dx_pad_0, pad_type = model_conv2d_22_Conv2Dx_pad_type_0, strides = model_conv2d_22_Conv2Dx_strides_0, weight = transpose_46_to_fp16, x = model_add_6_add_cast);
            tensor<string, []> model_conv2d_23_Conv2Dx_pad_type_0 = const()[name = tensor<string, []>("model_conv2d_23_Conv2Dx_pad_type_0"), val = tensor<string, []>("same")];
            tensor<int32, [2]> model_conv2d_23_Conv2Dx_strides_0 = const()[name = tensor<string, []>("model_conv2d_23_Conv2Dx_strides_0"), val = tensor<int32, [2]>([1, 1])];
            tensor<int32, [2]> model_conv2d_23_Conv2Dx_dilations_0 = const()[name = tensor<string, []>("model_conv2d_23_Conv2Dx_dilations_0"), val = tensor<int32, [2]>([1, 1])];
            tensor<int32, []> model_conv2d_23_Conv2Dx_groups_0 = const()[name = tensor<string, []>("model_conv2d_23_Conv2Dx_groups_0"), val = tensor<int32, []>(1)];
            tensor<int32, [4]> model_conv2d_23_Conv2Dx_pad_0 = const()[name = tensor<string, []>("model_conv2d_23_Conv2Dx_pad_0"), val = tensor<int32, [4]>([0, 0, 0, 0])];
            tensor<fp16, [64, 32, 1, 1]> transpose_48_to_fp16 = const()[name = tensor<string, []>("transpose_48_to_fp16"), val = tensor<fp16, [64, 32, 1, 1]>(BLOBFILE(path = tensor<string, []>("@model_path/weights/weight.bin"), offset = tensor<uint64, []>(87424)))];
            tensor<fp16, [64]> const_60_to_fp16 = const()[name = tensor<string, []>("const_60_to_fp16"), val = tensor<fp16, [64]>(BLOBFILE(path = tensor<string, []>("@model_path/weights/weight.bin"), offset = tensor<uint64, []>(91584)))];
            tensor<fp16, [1, 64, 4096, 32]> model_conv2d_23_BiasAdd_cast = conv(bias = const_60_to_fp16, dilations = model_conv2d_23_Conv2Dx_dilations_0, groups = model_conv2d_23_Conv2Dx_groups_0, pad = model_conv2d_23_Conv2Dx_pad_0, pad_type = model_conv2d_23_Conv2Dx_pad_type_0, strides = model_conv2d_23_Conv2Dx_strides_0, weight = transpose_48_to_fp16, x = model_conv2d_22_BiasAdd_cast);
            tensor<fp16, []> elu_8_alpha_0_to_fp16 = const()[name = tensor<string, []>("elu_8_alpha_0_to_fp16"), val = tensor<fp16, []>(0x1.ac4p+0)];
            tensor<fp16, [1, 64, 4096, 32]> elu_8_cast = elu(alpha = elu_8_alpha_0_to_fp16, x = model_conv2d_23_BiasAdd_cast);
            tensor<fp16, []> model_activation_7_Selu_y_0_to_fp16 = const()[name = tensor<string, []>("model_activation_7_Selu_y_0_to_fp16"), val = tensor<fp16, []>(0x1.0dp+0)];
            tensor<fp16, [1, 64, 4096, 32]> model_activation_7_Selu_cast = mul(x = elu_8_cast, y = model_activation_7_Selu_y_0_to_fp16);
            tensor<string, []> model_conv2d_24_Conv2Dx_pad_type_0 = const()[name = tensor<string, []>("model_conv2d_24_Conv2Dx_pad_type_0"), val = tensor<string, []>("same")];
            tensor<int32, [2]> model_conv2d_24_Conv2Dx_strides_0 = const()[name = tensor<string, []>("model_conv2d_24_Conv2Dx_strides_0"), val = tensor<int32, [2]>([1, 1])];
            tensor<int32, [2]> model_conv2d_24_Conv2Dx_dilations_0 = const()[name = tensor<string, []>("model_conv2d_24_Conv2Dx_dilations_0"), val = tensor<int32, [2]>([1, 1])];
            tensor<int32, []> model_conv2d_24_Conv2Dx_groups_0 = const()[name = tensor<string, []>("model_conv2d_24_Conv2Dx_groups_0"), val = tensor<int32, []>(1)];
            tensor<int32, [4]> model_conv2d_24_Conv2Dx_pad_0 = const()[name = tensor<string, []>("model_conv2d_24_Conv2Dx_pad_0"), val = tensor<int32, [4]>([0, 0, 0, 0])];
            tensor<fp16, [32, 64, 1, 1]> transpose_50_to_fp16 = const()[name = tensor<string, []>("transpose_50_to_fp16"), val = tensor<fp16, [32, 64, 1, 1]>(BLOBFILE(path = tensor<string, []>("@model_path/weights/weight.bin"), offset = tensor<uint64, []>(91776)))];
            tensor<fp16, [32]> const_61_to_fp16 = const()[name = tensor<string, []>("const_61_to_fp16"), val = tensor<fp16, [32]>(BLOBFILE(path = tensor<string, []>("@model_path/weights/weight.bin"), offset = tensor<uint64, []>(95936)))];
            tensor<fp16, [1, 32, 4096, 32]> model_conv2d_24_BiasAdd_cast = conv(bias = const_61_to_fp16, dilations = model_conv2d_24_Conv2Dx_dilations_0, groups = model_conv2d_24_Conv2Dx_groups_0, pad = model_conv2d_24_Conv2Dx_pad_0, pad_type = model_conv2d_24_Conv2Dx_pad_type_0, strides = model_conv2d_24_Conv2Dx_strides_0, weight = transpose_50_to_fp16, x = model_activation_7_Selu_cast);
            tensor<fp16, [1, 32, 4096, 32]> model_add_7_add_cast = add(x = model_conv2d_24_BiasAdd_cast, y = model_add_6_add_cast);
            tensor<string, []> model_conv2d_25_Conv2Dx_pad_type_0 = const()[name = tensor<string, []>("model_conv2d_25_Conv2Dx_pad_type_0"), val = tensor<string, []>("same")];
            tensor<int32, [2]> model_conv2d_25_Conv2Dx_strides_0 = const()[name = tensor<string, []>("model_conv2d_25_Conv2Dx_strides_0"), val = tensor<int32, [2]>([1, 1])];
            tensor<int32, [2]> model_conv2d_25_Conv2Dx_dilations_0 = const()[name = tensor<string, []>("model_conv2d_25_Conv2Dx_dilations_0"), val = tensor<int32, [2]>([1, 1])];
            tensor<int32, []> model_conv2d_25_Conv2Dx_groups_0 = const()[name = tensor<string, []>("model_conv2d_25_Conv2Dx_groups_0"), val = tensor<int32, []>(32)];
            tensor<int32, [4]> model_conv2d_25_Conv2Dx_pad_0 = const()[name = tensor<string, []>("model_conv2d_25_Conv2Dx_pad_0"), val = tensor<int32, [4]>([0, 0, 0, 0])];
            tensor<fp16, [32, 1, 7, 7]> transpose_52_to_fp16 = const()[name = tensor<string, []>("transpose_52_to_fp16"), val = tensor<fp16, [32, 1, 7, 7]>(BLOBFILE(path = tensor<string, []>("@model_path/weights/weight.bin"), offset = tensor<uint64, []>(96064)))];
            tensor<fp16, [32]> const_62_to_fp16 = const()[name = tensor<string, []>("const_62_to_fp16"), val = tensor<fp16, [32]>(BLOBFILE(path = tensor<string, []>("@model_path/weights/weight.bin"), offset = tensor<uint64, []>(99264)))];
            tensor<fp16, [1, 32, 4096, 32]> model_conv2d_25_BiasAdd_cast = conv(bias = const_62_to_fp16, dilations = model_conv2d_25_Conv2Dx_dilations_0, groups = model_conv2d_25_Conv2Dx_groups_0, pad = model_conv2d_25_Conv2Dx_pad_0, pad_type = model_conv2d_25_Conv2Dx_pad_type_0, strides = model_conv2d_25_Conv2Dx_strides_0, weight = transpose_52_to_fp16, x = model_add_7_add_cast);
            tensor<string, []> model_conv2d_26_Conv2Dx_pad_type_0 = const()[name = tensor<string, []>("model_conv2d_26_Conv2Dx_pad_type_0"), val = tensor<string, []>("same")];
            tensor<int32, [2]> model_conv2d_26_Conv2Dx_strides_0 = const()[name = tensor<string, []>("model_conv2d_26_Conv2Dx_strides_0"), val = tensor<int32, [2]>([1, 1])];
            tensor<int32, [2]> model_conv2d_26_Conv2Dx_dilations_0 = const()[name = tensor<string, []>("model_conv2d_26_Conv2Dx_dilations_0"), val = tensor<int32, [2]>([1, 1])];
            tensor<int32, []> model_conv2d_26_Conv2Dx_groups_0 = const()[name = tensor<string, []>("model_conv2d_26_Conv2Dx_groups_0"), val = tensor<int32, []>(1)];
            tensor<int32, [4]> model_conv2d_26_Conv2Dx_pad_0 = const()[name = tensor<string, []>("model_conv2d_26_Conv2Dx_pad_0"), val = tensor<int32, [4]>([0, 0, 0, 0])];
            tensor<fp16, [64, 32, 1, 1]> transpose_54_to_fp16 = const()[name = tensor<string, []>("transpose_54_to_fp16"), val = tensor<fp16, [64, 32, 1, 1]>(BLOBFILE(path = tensor<string, []>("@model_path/weights/weight.bin"), offset = tensor<uint64, []>(99392)))];
            tensor<fp16, [64]> const_63_to_fp16 = const()[name = tensor<string, []>("const_63_to_fp16"), val = tensor<fp16, [64]>(BLOBFILE(path = tensor<string, []>("@model_path/weights/weight.bin"), offset = tensor<uint64, []>(103552)))];
            tensor<fp16, [1, 64, 4096, 32]> model_conv2d_26_BiasAdd_cast = conv(bias = const_63_to_fp16, dilations = model_conv2d_26_Conv2Dx_dilations_0, groups = model_conv2d_26_Conv2Dx_groups_0, pad = model_conv2d_26_Conv2Dx_pad_0, pad_type = model_conv2d_26_Conv2Dx_pad_type_0, strides = model_conv2d_26_Conv2Dx_strides_0, weight = transpose_54_to_fp16, x = model_conv2d_25_BiasAdd_cast);
            tensor<fp16, []> elu_9_alpha_0_to_fp16 = const()[name = tensor<string, []>("elu_9_alpha_0_to_fp16"), val = tensor<fp16, []>(0x1.ac4p+0)];
            tensor<fp16, [1, 64, 4096, 32]> elu_9_cast = elu(alpha = elu_9_alpha_0_to_fp16, x = model_conv2d_26_BiasAdd_cast);
            tensor<fp16, []> model_activation_8_Selu_y_0_to_fp16 = const()[name = tensor<string, []>("model_activation_8_Selu_y_0_to_fp16"), val = tensor<fp16, []>(0x1.0dp+0)];
            tensor<fp16, [1, 64, 4096, 32]> model_activation_8_Selu_cast = mul(x = elu_9_cast, y = model_activation_8_Selu_y_0_to_fp16);
            tensor<string, []> model_conv2d_27_Conv2Dx_pad_type_0 = const()[name = tensor<string, []>("model_conv2d_27_Conv2Dx_pad_type_0"), val = tensor<string, []>("same")];
            tensor<int32, [2]> model_conv2d_27_Conv2Dx_strides_0 = const()[name = tensor<string, []>("model_conv2d_27_Conv2Dx_strides_0"), val = tensor<int32, [2]>([1, 1])];
            tensor<int32, [2]> model_conv2d_27_Conv2Dx_dilations_0 = const()[name = tensor<string, []>("model_conv2d_27_Conv2Dx_dilations_0"), val = tensor<int32, [2]>([1, 1])];
            tensor<int32, []> model_conv2d_27_Conv2Dx_groups_0 = const()[name = tensor<string, []>("model_conv2d_27_Conv2Dx_groups_0"), val = tensor<int32, []>(1)];
            tensor<int32, [4]> model_conv2d_27_Conv2Dx_pad_0 = const()[name = tensor<string, []>("model_conv2d_27_Conv2Dx_pad_0"), val = tensor<int32, [4]>([0, 0, 0, 0])];
            tensor<fp16, [32, 64, 1, 1]> transpose_56_to_fp16 = const()[name = tensor<string, []>("transpose_56_to_fp16"), val = tensor<fp16, [32, 64, 1, 1]>(BLOBFILE(path = tensor<string, []>("@model_path/weights/weight.bin"), offset = tensor<uint64, []>(103744)))];
            tensor<fp16, [32]> const_64_to_fp16 = const()[name = tensor<string, []>("const_64_to_fp16"), val = tensor<fp16, [32]>(BLOBFILE(path = tensor<string, []>("@model_path/weights/weight.bin"), offset = tensor<uint64, []>(107904)))];
            tensor<fp16, [1, 32, 4096, 32]> model_conv2d_27_BiasAdd_cast = conv(bias = const_64_to_fp16, dilations = model_conv2d_27_Conv2Dx_dilations_0, groups = model_conv2d_27_Conv2Dx_groups_0, pad = model_conv2d_27_Conv2Dx_pad_0, pad_type = model_conv2d_27_Conv2Dx_pad_type_0, strides = model_conv2d_27_Conv2Dx_strides_0, weight = transpose_56_to_fp16, x = model_activation_8_Selu_cast);
            tensor<fp16, [1, 32, 4096, 32]> model_add_8_add_cast = add(x = model_conv2d_27_BiasAdd_cast, y = model_add_7_add_cast);
            tensor<int32, [2]> max_pool_2_kernel_sizes_0 = const()[name = tensor<string, []>("max_pool_2_kernel_sizes_0"), val = tensor<int32, [2]>([1, 2])];
            tensor<int32, [2]> max_pool_2_strides_0 = const()[name = tensor<string, []>("max_pool_2_strides_0"), val = tensor<int32, [2]>([1, 2])];
            tensor<string, []> max_pool_2_pad_type_0 = const()[name = tensor<string, []>("max_pool_2_pad_type_0"), val = tensor<string, []>("valid")];
            tensor<int32, [4]> max_pool_2_pad_0 = const()[name = tensor<string, []>("max_pool_2_pad_0"), val = tensor<int32, [4]>([0, 0, 0, 0])];
            tensor<bool, []> max_pool_2_ceil_mode_0 = const()[name = tensor<string, []>("max_pool_2_ceil_mode_0"), val = tensor<bool, []>(false)];
            tensor<fp16, [1, 32, 4096, 16]> max_pool_2_cast = max_pool(ceil_mode = max_pool_2_ceil_mode_0, kernel_sizes = max_pool_2_kernel_sizes_0, pad = max_pool_2_pad_0, pad_type = max_pool_2_pad_type_0, strides = max_pool_2_strides_0, x = model_add_8_add_cast);
            tensor<string, []> model_conv2d_28_Conv2Dx_pad_type_0 = const()[name = tensor<string, []>("model_conv2d_28_Conv2Dx_pad_type_0"), val = tensor<string, []>("same")];
            tensor<int32, [2]> model_conv2d_28_Conv2Dx_strides_0 = const()[name = tensor<string, []>("model_conv2d_28_Conv2Dx_strides_0"), val = tensor<int32, [2]>([1, 1])];
            tensor<int32, [2]> model_conv2d_28_Conv2Dx_dilations_0 = const()[name = tensor<string, []>("model_conv2d_28_Conv2Dx_dilations_0"), val = tensor<int32, [2]>([1, 1])];
            tensor<int32, []> model_conv2d_28_Conv2Dx_groups_0 = const()[name = tensor<string, []>("model_conv2d_28_Conv2Dx_groups_0"), val = tensor<int32, []>(32)];
            tensor<int32, [4]> model_conv2d_28_Conv2Dx_pad_0 = const()[name = tensor<string, []>("model_conv2d_28_Conv2Dx_pad_0"), val = tensor<int32, [4]>([0, 0, 0, 0])];
            tensor<fp16, [32, 1, 7, 7]> transpose_59_to_fp16 = const()[name = tensor<string, []>("transpose_59_to_fp16"), val = tensor<fp16, [32, 1, 7, 7]>(BLOBFILE(path = tensor<string, []>("@model_path/weights/weight.bin"), offset = tensor<uint64, []>(108032)))];
            tensor<fp16, [32]> const_65_to_fp16 = const()[name = tensor<string, []>("const_65_to_fp16"), val = tensor<fp16, [32]>(BLOBFILE(path = tensor<string, []>("@model_path/weights/weight.bin"), offset = tensor<uint64, []>(111232)))];
            tensor<fp16, [1, 32, 4096, 16]> model_conv2d_28_BiasAdd_cast = conv(bias = const_65_to_fp16, dilations = model_conv2d_28_Conv2Dx_dilations_0, groups = model_conv2d_28_Conv2Dx_groups_0, pad = model_conv2d_28_Conv2Dx_pad_0, pad_type = model_conv2d_28_Conv2Dx_pad_type_0, strides = model_conv2d_28_Conv2Dx_strides_0, weight = transpose_59_to_fp16, x = max_pool_2_cast);
            tensor<string, []> model_conv2d_29_Conv2Dx_pad_type_0 = const()[name = tensor<string, []>("model_conv2d_29_Conv2Dx_pad_type_0"), val = tensor<string, []>("same")];
            tensor<int32, [2]> model_conv2d_29_Conv2Dx_strides_0 = const()[name = tensor<string, []>("model_conv2d_29_Conv2Dx_strides_0"), val = tensor<int32, [2]>([1, 1])];
            tensor<int32, [2]> model_conv2d_29_Conv2Dx_dilations_0 = const()[name = tensor<string, []>("model_conv2d_29_Conv2Dx_dilations_0"), val = tensor<int32, [2]>([1, 1])];
            tensor<int32, []> model_conv2d_29_Conv2Dx_groups_0 = const()[name = tensor<string, []>("model_conv2d_29_Conv2Dx_groups_0"), val = tensor<int32, []>(1)];
            tensor<int32, [4]> model_conv2d_29_Conv2Dx_pad_0 = const()[name = tensor<string, []>("model_conv2d_29_Conv2Dx_pad_0"), val = tensor<int32, [4]>([0, 0, 0, 0])];
            tensor<fp16, [64, 32, 1, 1]> transpose_61_to_fp16 = const()[name = tensor<string, []>("transpose_61_to_fp16"), val = tensor<fp16, [64, 32, 1, 1]>(BLOBFILE(path = tensor<string, []>("@model_path/weights/weight.bin"), offset = tensor<uint64, []>(111360)))];
            tensor<fp16, [64]> const_66_to_fp16 = const()[name = tensor<string, []>("const_66_to_fp16"), val = tensor<fp16, [64]>(BLOBFILE(path = tensor<string, []>("@model_path/weights/weight.bin"), offset = tensor<uint64, []>(115520)))];
            tensor<fp16, [1, 64, 4096, 16]> model_conv2d_29_BiasAdd_cast = conv(bias = const_66_to_fp16, dilations = model_conv2d_29_Conv2Dx_dilations_0, groups = model_conv2d_29_Conv2Dx_groups_0, pad = model_conv2d_29_Conv2Dx_pad_0, pad_type = model_conv2d_29_Conv2Dx_pad_type_0, strides = model_conv2d_29_Conv2Dx_strides_0, weight = transpose_61_to_fp16, x = model_conv2d_28_BiasAdd_cast);
            tensor<fp16, []> elu_10_alpha_0_to_fp16 = const()[name = tensor<string, []>("elu_10_alpha_0_to_fp16"), val = tensor<fp16, []>(0x1.ac4p+0)];
            tensor<fp16, [1, 64, 4096, 16]> elu_10_cast = elu(alpha = elu_10_alpha_0_to_fp16, x = model_conv2d_29_BiasAdd_cast);
            tensor<fp16, []> model_activation_9_Selu_y_0_to_fp16 = const()[name = tensor<string, []>("model_activation_9_Selu_y_0_to_fp16"), val = tensor<fp16, []>(0x1.0dp+0)];
            tensor<fp16, [1, 64, 4096, 16]> model_activation_9_Selu_cast = mul(x = elu_10_cast, y = model_activation_9_Selu_y_0_to_fp16);
            tensor<string, []> model_conv2d_30_Conv2Dx_pad_type_0 = const()[name = tensor<string, []>("model_conv2d_30_Conv2Dx_pad_type_0"), val = tensor<string, []>("same")];
            tensor<int32, [2]> model_conv2d_30_Conv2Dx_strides_0 = const()[name = tensor<string, []>("model_conv2d_30_Conv2Dx_strides_0"), val = tensor<int32, [2]>([1, 1])];
            tensor<int32, [2]> model_conv2d_30_Conv2Dx_dilations_0 = const()[name = tensor<string, []>("model_conv2d_30_Conv2Dx_dilations_0"), val = tensor<int32, [2]>([1, 1])];
            tensor<int32, []> model_conv2d_30_Conv2Dx_groups_0 = const()[name = tensor<string, []>("model_conv2d_30_Conv2Dx_groups_0"), val = tensor<int32, []>(1)];
            tensor<int32, [4]> model_conv2d_30_Conv2Dx_pad_0 = const()[name = tensor<string, []>("model_conv2d_30_Conv2Dx_pad_0"), val = tensor<int32, [4]>([0, 0, 0, 0])];
            tensor<fp16, [32, 64, 1, 1]> transpose_63_to_fp16 = const()[name = tensor<string, []>("transpose_63_to_fp16"), val = tensor<fp16, [32, 64, 1, 1]>(BLOBFILE(path = tensor<string, []>("@model_path/weights/weight.bin"), offset = tensor<uint64, []>(115712)))];
            tensor<fp16, [32]> const_67_to_fp16 = const()[name = tensor<string, []>("const_67_to_fp16"), val = tensor<fp16, [32]>(BLOBFILE(path = tensor<string, []>("@model_path/weights/weight.bin"), offset = tensor<uint64, []>(119872)))];
            tensor<fp16, [1, 32, 4096, 16]> model_conv2d_30_BiasAdd_cast = conv(bias = const_67_to_fp16, dilations = model_conv2d_30_Conv2Dx_dilations_0, groups = model_conv2d_30_Conv2Dx_groups_0, pad = model_conv2d_30_Conv2Dx_pad_0, pad_type = model_conv2d_30_Conv2Dx_pad_type_0, strides = model_conv2d_30_Conv2Dx_strides_0, weight = transpose_63_to_fp16, x = model_activation_9_Selu_cast);
            tensor<fp16, [1, 32, 4096, 16]> model_add_9_add_cast = add(x = model_conv2d_30_BiasAdd_cast, y = max_pool_2_cast);
            tensor<string, []> model_conv2d_31_Conv2Dx_pad_type_0 = const()[name = tensor<string, []>("model_conv2d_31_Conv2Dx_pad_type_0"), val = tensor<string, []>("same")];
            tensor<int32, [2]> model_conv2d_31_Conv2Dx_strides_0 = const()[name = tensor<string, []>("model_conv2d_31_Conv2Dx_strides_0"), val = tensor<int32, [2]>([1, 1])];
            tensor<int32, [2]> model_conv2d_31_Conv2Dx_dilations_0 = const()[name = tensor<string, []>("model_conv2d_31_Conv2Dx_dilations_0"), val = tensor<int32, [2]>([1, 1])];
            tensor<int32, []> model_conv2d_31_Conv2Dx_groups_0 = const()[name = tensor<string, []>("model_conv2d_31_Conv2Dx_groups_0"), val = tensor<int32, []>(32)];
            tensor<int32, [4]> model_conv2d_31_Conv2Dx_pad_0 = const()[name = tensor<string, []>("model_conv2d_31_Conv2Dx_pad_0"), val = tensor<int32, [4]>([0, 0, 0, 0])];
            tensor<fp16, [32, 1, 7, 7]> transpose_65_to_fp16 = const()[name = tensor<string, []>("transpose_65_to_fp16"), val = tensor<fp16, [32, 1, 7, 7]>(BLOBFILE(path = tensor<string, []>("@model_path/weights/weight.bin"), offset = tensor<uint64, []>(120000)))];
            tensor<fp16, [32]> const_68_to_fp16 = const()[name = tensor<string, []>("const_68_to_fp16"), val = tensor<fp16, [32]>(BLOBFILE(path = tensor<string, []>("@model_path/weights/weight.bin"), offset = tensor<uint64, []>(123200)))];
            tensor<fp16, [1, 32, 4096, 16]> model_conv2d_31_BiasAdd_cast = conv(bias = const_68_to_fp16, dilations = model_conv2d_31_Conv2Dx_dilations_0, groups = model_conv2d_31_Conv2Dx_groups_0, pad = model_conv2d_31_Conv2Dx_pad_0, pad_type = model_conv2d_31_Conv2Dx_pad_type_0, strides = model_conv2d_31_Conv2Dx_strides_0, weight = transpose_65_to_fp16, x = model_add_9_add_cast);
            tensor<string, []> model_conv2d_32_Conv2Dx_pad_type_0 = const()[name = tensor<string, []>("model_conv2d_32_Conv2Dx_pad_type_0"), val = tensor<string, []>("same")];
            tensor<int32, [2]> model_conv2d_32_Conv2Dx_strides_0 = const()[name = tensor<string, []>("model_conv2d_32_Conv2Dx_strides_0"), val = tensor<int32, [2]>([1, 1])];
            tensor<int32, [2]> model_conv2d_32_Conv2Dx_dilations_0 = const()[name = tensor<string, []>("model_conv2d_32_Conv2Dx_dilations_0"), val = tensor<int32, [2]>([1, 1])];
            tensor<int32, []> model_conv2d_32_Conv2Dx_groups_0 = const()[name = tensor<string, []>("model_conv2d_32_Conv2Dx_groups_0"), val = tensor<int32, []>(1)];
            tensor<int32, [4]> model_conv2d_32_Conv2Dx_pad_0 = const()[name = tensor<string, []>("model_conv2d_32_Conv2Dx_pad_0"), val = tensor<int32, [4]>([0, 0, 0, 0])];
            tensor<fp16, [64, 32, 1, 1]> transpose_67_to_fp16 = const()[name = tensor<string, []>("transpose_67_to_fp16"), val = tensor<fp16, [64, 32, 1, 1]>(BLOBFILE(path = tensor<string, []>("@model_path/weights/weight.bin"), offset = tensor<uint64, []>(123328)))];
            tensor<fp16, [64]> const_69_to_fp16 = const()[name = tensor<string, []>("const_69_to_fp16"), val = tensor<fp16, [64]>(BLOBFILE(path = tensor<string, []>("@model_path/weights/weight.bin"), offset = tensor<uint64, []>(127488)))];
            tensor<fp16, [1, 64, 4096, 16]> model_conv2d_32_BiasAdd_cast = conv(bias = const_69_to_fp16, dilations = model_conv2d_32_Conv2Dx_dilations_0, groups = model_conv2d_32_Conv2Dx_groups_0, pad = model_conv2d_32_Conv2Dx_pad_0, pad_type = model_conv2d_32_Conv2Dx_pad_type_0, strides = model_conv2d_32_Conv2Dx_strides_0, weight = transpose_67_to_fp16, x = model_conv2d_31_BiasAdd_cast);
            tensor<fp16, []> elu_11_alpha_0_to_fp16 = const()[name = tensor<string, []>("elu_11_alpha_0_to_fp16"), val = tensor<fp16, []>(0x1.ac4p+0)];
            tensor<fp16, [1, 64, 4096, 16]> elu_11_cast = elu(alpha = elu_11_alpha_0_to_fp16, x = model_conv2d_32_BiasAdd_cast);
            tensor<fp16, []> model_activation_10_Selu_y_0_to_fp16 = const()[name = tensor<string, []>("model_activation_10_Selu_y_0_to_fp16"), val = tensor<fp16, []>(0x1.0dp+0)];
            tensor<fp16, [1, 64, 4096, 16]> model_activation_10_Selu_cast = mul(x = elu_11_cast, y = model_activation_10_Selu_y_0_to_fp16);
            tensor<string, []> model_conv2d_33_Conv2Dx_pad_type_0 = const()[name = tensor<string, []>("model_conv2d_33_Conv2Dx_pad_type_0"), val = tensor<string, []>("same")];
            tensor<int32, [2]> model_conv2d_33_Conv2Dx_strides_0 = const()[name = tensor<string, []>("model_conv2d_33_Conv2Dx_strides_0"), val = tensor<int32, [2]>([1, 1])];
            tensor<int32, [2]> model_conv2d_33_Conv2Dx_dilations_0 = const()[name = tensor<string, []>("model_conv2d_33_Conv2Dx_dilations_0"), val = tensor<int32, [2]>([1, 1])];
            tensor<int32, []> model_conv2d_33_Conv2Dx_groups_0 = const()[name = tensor<string, []>("model_conv2d_33_Conv2Dx_groups_0"), val = tensor<int32, []>(1)];
            tensor<int32, [4]> model_conv2d_33_Conv2Dx_pad_0 = const()[name = tensor<string, []>("model_conv2d_33_Conv2Dx_pad_0"), val = tensor<int32, [4]>([0, 0, 0, 0])];
            tensor<fp16, [32, 64, 1, 1]> transpose_69_to_fp16 = const()[name = tensor<string, []>("transpose_69_to_fp16"), val = tensor<fp16, [32, 64, 1, 1]>(BLOBFILE(path = tensor<string, []>("@model_path/weights/weight.bin"), offset = tensor<uint64, []>(127680)))];
            tensor<fp16, [32]> const_70_to_fp16 = const()[name = tensor<string, []>("const_70_to_fp16"), val = tensor<fp16, [32]>(BLOBFILE(path = tensor<string, []>("@model_path/weights/weight.bin"), offset = tensor<uint64, []>(131840)))];
            tensor<fp16, [1, 32, 4096, 16]> model_conv2d_33_BiasAdd_cast = conv(bias = const_70_to_fp16, dilations = model_conv2d_33_Conv2Dx_dilations_0, groups = model_conv2d_33_Conv2Dx_groups_0, pad = model_conv2d_33_Conv2Dx_pad_0, pad_type = model_conv2d_33_Conv2Dx_pad_type_0, strides = model_conv2d_33_Conv2Dx_strides_0, weight = transpose_69_to_fp16, x = model_activation_10_Selu_cast);
            tensor<fp16, [1, 32, 4096, 16]> model_add_10_add_cast = add(x = model_conv2d_33_BiasAdd_cast, y = model_add_9_add_cast);
            tensor<string, []> model_conv2d_34_Conv2Dx_pad_type_0 = const()[name = tensor<string, []>("model_conv2d_34_Conv2Dx_pad_type_0"), val = tensor<string, []>("same")];
            tensor<int32, [2]> model_conv2d_34_Conv2Dx_strides_0 = const()[name = tensor<string, []>("model_conv2d_34_Conv2Dx_strides_0"), val = tensor<int32, [2]>([1, 1])];
            tensor<int32, [2]> model_conv2d_34_Conv2Dx_dilations_0 = const()[name = tensor<string, []>("model_conv2d_34_Conv2Dx_dilations_0"), val = tensor<int32, [2]>([1, 1])];
            tensor<int32, []> model_conv2d_34_Conv2Dx_groups_0 = const()[name = tensor<string, []>("model_conv2d_34_Conv2Dx_groups_0"), val = tensor<int32, []>(32)];
            tensor<int32, [4]> model_conv2d_34_Conv2Dx_pad_0 = const()[name = tensor<string, []>("model_conv2d_34_Conv2Dx_pad_0"), val = tensor<int32, [4]>([0, 0, 0, 0])];
            tensor<fp16, [32, 1, 7, 7]> transpose_71_to_fp16 = const()[name = tensor<string, []>("transpose_71_to_fp16"), val = tensor<fp16, [32, 1, 7, 7]>(BLOBFILE(path = tensor<string, []>("@model_path/weights/weight.bin"), offset = tensor<uint64, []>(131968)))];
            tensor<fp16, [32]> const_71_to_fp16 = const()[name = tensor<string, []>("const_71_to_fp16"), val = tensor<fp16, [32]>(BLOBFILE(path = tensor<string, []>("@model_path/weights/weight.bin"), offset = tensor<uint64, []>(135168)))];
            tensor<fp16, [1, 32, 4096, 16]> model_conv2d_34_BiasAdd_cast = conv(bias = const_71_to_fp16, dilations = model_conv2d_34_Conv2Dx_dilations_0, groups = model_conv2d_34_Conv2Dx_groups_0, pad = model_conv2d_34_Conv2Dx_pad_0, pad_type = model_conv2d_34_Conv2Dx_pad_type_0, strides = model_conv2d_34_Conv2Dx_strides_0, weight = transpose_71_to_fp16, x = model_add_10_add_cast);
            tensor<string, []> model_conv2d_35_Conv2Dx_pad_type_0 = const()[name = tensor<string, []>("model_conv2d_35_Conv2Dx_pad_type_0"), val = tensor<string, []>("same")];
            tensor<int32, [2]> model_conv2d_35_Conv2Dx_strides_0 = const()[name = tensor<string, []>("model_conv2d_35_Conv2Dx_strides_0"), val = tensor<int32, [2]>([1, 1])];
            tensor<int32, [2]> model_conv2d_35_Conv2Dx_dilations_0 = const()[name = tensor<string, []>("model_conv2d_35_Conv2Dx_dilations_0"), val = tensor<int32, [2]>([1, 1])];
            tensor<int32, []> model_conv2d_35_Conv2Dx_groups_0 = const()[name = tensor<string, []>("model_conv2d_35_Conv2Dx_groups_0"), val = tensor<int32, []>(1)];
            tensor<int32, [4]> model_conv2d_35_Conv2Dx_pad_0 = const()[name = tensor<string, []>("model_conv2d_35_Conv2Dx_pad_0"), val = tensor<int32, [4]>([0, 0, 0, 0])];
            tensor<fp16, [64, 32, 1, 1]> transpose_73_to_fp16 = const()[name = tensor<string, []>("transpose_73_to_fp16"), val = tensor<fp16, [64, 32, 1, 1]>(BLOBFILE(path = tensor<string, []>("@model_path/weights/weight.bin"), offset = tensor<uint64, []>(135296)))];
            tensor<fp16, [64]> const_72_to_fp16 = const()[name = tensor<string, []>("const_72_to_fp16"), val = tensor<fp16, [64]>(BLOBFILE(path = tensor<string, []>("@model_path/weights/weight.bin"), offset = tensor<uint64, []>(139456)))];
            tensor<fp16, [1, 64, 4096, 16]> model_conv2d_35_BiasAdd_cast = conv(bias = const_72_to_fp16, dilations = model_conv2d_35_Conv2Dx_dilations_0, groups = model_conv2d_35_Conv2Dx_groups_0, pad = model_conv2d_35_Conv2Dx_pad_0, pad_type = model_conv2d_35_Conv2Dx_pad_type_0, strides = model_conv2d_35_Conv2Dx_strides_0, weight = transpose_73_to_fp16, x = model_conv2d_34_BiasAdd_cast);
            tensor<fp16, []> elu_12_alpha_0_to_fp16 = const()[name = tensor<string, []>("elu_12_alpha_0_to_fp16"), val = tensor<fp16, []>(0x1.ac4p+0)];
            tensor<fp16, [1, 64, 4096, 16]> elu_12_cast = elu(alpha = elu_12_alpha_0_to_fp16, x = model_conv2d_35_BiasAdd_cast);
            tensor<fp16, []> model_activation_11_Selu_y_0_to_fp16 = const()[name = tensor<string, []>("model_activation_11_Selu_y_0_to_fp16"), val = tensor<fp16, []>(0x1.0dp+0)];
            tensor<fp16, [1, 64, 4096, 16]> model_activation_11_Selu_cast = mul(x = elu_12_cast, y = model_activation_11_Selu_y_0_to_fp16);
            tensor<string, []> model_conv2d_36_Conv2Dx_pad_type_0 = const()[name = tensor<string, []>("model_conv2d_36_Conv2Dx_pad_type_0"), val = tensor<string, []>("same")];
            tensor<int32, [2]> model_conv2d_36_Conv2Dx_strides_0 = const()[name = tensor<string, []>("model_conv2d_36_Conv2Dx_strides_0"), val = tensor<int32, [2]>([1, 1])];
            tensor<int32, [2]> model_conv2d_36_Conv2Dx_dilations_0 = const()[name = tensor<string, []>("model_conv2d_36_Conv2Dx_dilations_0"), val = tensor<int32, [2]>([1, 1])];
            tensor<int32, []> model_conv2d_36_Conv2Dx_groups_0 = const()[name = tensor<string, []>("model_conv2d_36_Conv2Dx_groups_0"), val = tensor<int32, []>(1)];
            tensor<int32, [4]> model_conv2d_36_Conv2Dx_pad_0 = const()[name = tensor<string, []>("model_conv2d_36_Conv2Dx_pad_0"), val = tensor<int32, [4]>([0, 0, 0, 0])];
            tensor<fp16, [32, 64, 1, 1]> transpose_75_to_fp16 = const()[name = tensor<string, []>("transpose_75_to_fp16"), val = tensor<fp16, [32, 64, 1, 1]>(BLOBFILE(path = tensor<string, []>("@model_path/weights/weight.bin"), offset = tensor<uint64, []>(139648)))];
            tensor<fp16, [32]> const_73_to_fp16 = const()[name = tensor<string, []>("const_73_to_fp16"), val = tensor<fp16, [32]>(BLOBFILE(path = tensor<string, []>("@model_path/weights/weight.bin"), offset = tensor<uint64, []>(143808)))];
            tensor<fp16, [1, 32, 4096, 16]> model_conv2d_36_BiasAdd_cast = conv(bias = const_73_to_fp16, dilations = model_conv2d_36_Conv2Dx_dilations_0, groups = model_conv2d_36_Conv2Dx_groups_0, pad = model_conv2d_36_Conv2Dx_pad_0, pad_type = model_conv2d_36_Conv2Dx_pad_type_0, strides = model_conv2d_36_Conv2Dx_strides_0, weight = transpose_75_to_fp16, x = model_activation_11_Selu_cast);
            tensor<fp16, [1, 32, 4096, 16]> model_add_11_add_cast = add(x = model_conv2d_36_BiasAdd_cast, y = model_add_10_add_cast);
            tensor<int32, [2]> max_pool_3_kernel_sizes_0 = const()[name = tensor<string, []>("max_pool_3_kernel_sizes_0"), val = tensor<int32, [2]>([1, 2])];
            tensor<int32, [2]> max_pool_3_strides_0 = const()[name = tensor<string, []>("max_pool_3_strides_0"), val = tensor<int32, [2]>([1, 2])];
            tensor<string, []> max_pool_3_pad_type_0 = const()[name = tensor<string, []>("max_pool_3_pad_type_0"), val = tensor<string, []>("valid")];
            tensor<int32, [4]> max_pool_3_pad_0 = const()[name = tensor<string, []>("max_pool_3_pad_0"), val = tensor<int32, [4]>([0, 0, 0, 0])];
            tensor<bool, []> max_pool_3_ceil_mode_0 = const()[name = tensor<string, []>("max_pool_3_ceil_mode_0"), val = tensor<bool, []>(false)];
            tensor<fp16, [1, 32, 4096, 8]> max_pool_3_cast = max_pool(ceil_mode = max_pool_3_ceil_mode_0, kernel_sizes = max_pool_3_kernel_sizes_0, pad = max_pool_3_pad_0, pad_type = max_pool_3_pad_type_0, strides = max_pool_3_strides_0, x = model_add_11_add_cast);
            tensor<int32, [4]> model_max_pooling2d_3_MaxPool_perm_0 = const()[name = tensor<string, []>("model_max_pooling2d_3_MaxPool_perm_0"), val = tensor<int32, [4]>([0, 2, 3, 1])];
            tensor<fp16, [1, 4096, 8, 32]> transpose_233 = transpose(perm = model_max_pooling2d_3_MaxPool_perm_0, x = max_pool_3_cast);
            tensor<fp16, [4096, 8, 32]> model_time_distributed_Reshape_cast = reshape(shape = model_time_distributed_Reshape_shape, x = transpose_233);
            tensor<fp16, [4096, 256]> model_time_distributed_flatten_Reshape_cast = reshape(shape = model_time_distributed_flatten_Const, x = model_time_distributed_Reshape_cast);
            tensor<int32, [3]> model_time_distributed_Reshape_1_shape = const()[name = tensor<string, []>("model_time_distributed_Reshape_1_shape"), val = tensor<int32, [3]>([-1, 4096, 256])];
            tensor<fp16, [1, 4096, 256]> model_time_distributed_Reshape_1_cast = reshape(shape = model_time_distributed_Reshape_1_shape, x = model_time_distributed_flatten_Reshape_cast);
            tensor<int32, [1]> model_tcn_residual_block_0_matching_conv1D_conv1d_ExpandDims_axes_0 = const()[name = tensor<string, []>("model_tcn_residual_block_0_matching_conv1D_conv1d_ExpandDims_axes_0"), val = tensor<int32, [1]>([-3])];
            tensor<fp16, [1, 1, 4096, 256]> model_tcn_residual_block_0_matching_conv1D_conv1d_ExpandDims_cast = expand_dims(axes = model_tcn_residual_block_0_matching_conv1D_conv1d_ExpandDims_axes_0, x = model_time_distributed_Reshape_1_cast);
            tensor<int32, [4]> transpose_79_perm_0 = const()[name = tensor<string, []>("transpose_79_perm_0"), val = tensor<int32, [4]>([0, 3, 1, 2])];
            tensor<string, []> model_tcn_residual_block_0_matching_conv1D_conv1dx_pad_type_0 = const()[name = tensor<string, []>("model_tcn_residual_block_0_matching_conv1D_conv1dx_pad_type_0"), val = tensor<string, []>("same")];
            tensor<int32, [2]> model_tcn_residual_block_0_matching_conv1D_conv1dx_strides_0 = const()[name = tensor<string, []>("model_tcn_residual_block_0_matching_conv1D_conv1dx_strides_0"), val = tensor<int32, [2]>([1, 1])];
            tensor<int32, [2]> model_tcn_residual_block_0_matching_conv1D_conv1dx_dilations_0 = const()[name = tensor<string, []>("model_tcn_residual_block_0_matching_conv1D_conv1dx_dilations_0"), val = tensor<int32, [2]>([1, 1])];
            tensor<int32, []> model_tcn_residual_block_0_matching_conv1D_conv1dx_groups_0 = const()[name = tensor<string, []>("model_tcn_residual_block_0_matching_conv1D_conv1dx_groups_0"), val = tensor<int32, []>(1)];
            tensor<int32, [4]> model_tcn_residual_block_0_matching_conv1D_conv1dx_pad_0 = const()[name = tensor<string, []>("model_tcn_residual_block_0_matching_conv1D_conv1dx_pad_0"), val = tensor<int32, [4]>([0, 0, 0, 0])];
            tensor<fp16, [64, 256, 1, 1]> transpose_78_to_fp16 = const()[name = tensor<string, []>("transpose_78_to_fp16"), val = tensor<fp16, [64, 256, 1, 1]>(BLOBFILE(path = tensor<string, []>("@model_path/weights/weight.bin"), offset = tensor<uint64, []>(143936)))];
            tensor<fp16, [1, 256, 1, 4096]> transpose_232 = transpose(perm = transpose_79_perm_0, x = model_tcn_residual_block_0_matching_conv1D_conv1d_ExpandDims_cast);
            tensor<fp16, [1, 64, 1, 4096]> model_tcn_residual_block_0_matching_conv1D_conv1dx_cast = conv(dilations = model_tcn_residual_block_0_matching_conv1D_conv1dx_dilations_0, groups = model_tcn_residual_block_0_matching_conv1D_conv1dx_groups_0, pad = model_tcn_residual_block_0_matching_conv1D_conv1dx_pad_0, pad_type = model_tcn_residual_block_0_matching_conv1D_conv1dx_pad_type_0, strides = model_tcn_residual_block_0_matching_conv1D_conv1dx_strides_0, weight = transpose_78_to_fp16, x = transpose_232);
            tensor<int32, [4]> model_tcn_residual_block_0_matching_conv1D_conv1d_perm_0 = const()[name = tensor<string, []>("model_tcn_residual_block_0_matching_conv1D_conv1d_perm_0"), val = tensor<int32, [4]>([0, 2, 3, 1])];
            tensor<string, []> model_tcn_residual_block_0_conv1D_0_conv1dx_pad_type_0 = const()[name = tensor<string, []>("model_tcn_residual_block_0_conv1D_0_conv1dx_pad_type_0"), val = tensor<string, []>("same")];
            tensor<int32, [2]> model_tcn_residual_block_0_conv1D_0_conv1dx_strides_0 = const()[name = tensor<string, []>("model_tcn_residual_block_0_conv1D_0_conv1dx_strides_0"), val = tensor<int32, [2]>([1, 1])];
            tensor<int32, [2]> model_tcn_residual_block_0_conv1D_0_conv1dx_dilations_0 = const()[name = tensor<string, []>("model_tcn_residual_block_0_conv1D_0_conv1dx_dilations_0"), val = tensor<int32, [2]>([1, 1])];
            tensor<int32, []> model_tcn_residual_block_0_conv1D_0_conv1dx_groups_0 = const()[name = tensor<string, []>("model_tcn_residual_block_0_conv1D_0_conv1dx_groups_0"), val = tensor<int32, []>(1)];
            tensor<int32, [4]> model_tcn_residual_block_0_conv1D_0_conv1dx_pad_0 = const()[name = tensor<string, []>("model_tcn_residual_block_0_conv1D_0_conv1dx_pad_0"), val = tensor<int32, [4]>([0, 0, 0, 0])];
            tensor<fp16, [64, 256, 1, 7]> transpose_80_to_fp16 = const()[name = tensor<string, []>("transpose_80_to_fp16"), val = tensor<fp16, [64, 256, 1, 7]>(BLOBFILE(path = tensor<string, []>("@model_path/weights/weight.bin"), offset = tensor<uint64, []>(176768)))];
            tensor<fp16, [1, 64, 1, 4096]> model_tcn_residual_block_0_conv1D_0_conv1dx_cast = conv(dilations = model_tcn_residual_block_0_conv1D_0_conv1dx_dilations_0, groups = model_tcn_residual_block_0_conv1D_0_conv1dx_groups_0, pad = model_tcn_residual_block_0_conv1D_0_conv1dx_pad_0, pad_type = model_tcn_residual_block_0_conv1D_0_conv1dx_pad_type_0, strides = model_tcn_residual_block_0_conv1D_0_conv1dx_strides_0, weight = transpose_80_to_fp16, x = transpose_232);
            tensor<int32, [4]> model_tcn_residual_block_0_conv1D_0_conv1d_perm_0 = const()[name = tensor<string, []>("model_tcn_residual_block_0_conv1D_0_conv1d_perm_0"), val = tensor<int32, [4]>([0, 2, 3, 1])];
            tensor<int32, [1]> model_tcn_residual_block_0_matching_conv1D_conv1d_Squeeze_axes_0 = const()[name = tensor<string, []>("model_tcn_residual_block_0_matching_conv1D_conv1d_Squeeze_axes_0"), val = tensor<int32, [1]>([-3])];
            tensor<fp16, [1, 1, 4096, 64]> transpose_231 = transpose(perm = model_tcn_residual_block_0_matching_conv1D_conv1d_perm_0, x = model_tcn_residual_block_0_matching_conv1D_conv1dx_cast);
            tensor<fp16, [1, 4096, 64]> model_tcn_residual_block_0_matching_conv1D_conv1d_Squeeze_cast = squeeze(axes = model_tcn_residual_block_0_matching_conv1D_conv1d_Squeeze_axes_0, x = transpose_231);
            tensor<int32, [1]> model_tcn_residual_block_0_conv1D_0_conv1d_Squeeze_axes_0 = const()[name = tensor<string, []>("model_tcn_residual_block_0_conv1D_0_conv1d_Squeeze_axes_0"), val = tensor<int32, [1]>([-3])];
            tensor<fp16, [1, 1, 4096, 64]> transpose_230 = transpose(perm = model_tcn_residual_block_0_conv1D_0_conv1d_perm_0, x = model_tcn_residual_block_0_conv1D_0_conv1dx_cast);
            tensor<fp16, [1, 4096, 64]> model_tcn_residual_block_0_conv1D_0_conv1d_Squeeze_cast = squeeze(axes = model_tcn_residual_block_0_conv1D_0_conv1d_Squeeze_axes_0, x = transpose_230);
            tensor<fp16, [64]> model_tcn_residual_block_0_matching_conv1D_BiasAdd_ReadVariableOp_to_fp16 = const()[name = tensor<string, []>("model_tcn_residual_block_0_matching_conv1D_BiasAdd_ReadVariableOp_to_fp16"), val = tensor<fp16, [64]>(BLOBFILE(path = tensor<string, []>("@model_path/weights/weight.bin"), offset = tensor<uint64, []>(406208)))];
            tensor<fp16, [1, 4096, 64]> model_tcn_residual_block_0_matching_conv1D_BiasAdd_cast = add(x = model_tcn_residual_block_0_matching_conv1D_conv1d_Squeeze_cast, y = model_tcn_residual_block_0_matching_conv1D_BiasAdd_ReadVariableOp_to_fp16);
            tensor<fp16, [64]> model_tcn_residual_block_0_conv1D_0_BiasAdd_ReadVariableOp_to_fp16 = const()[name = tensor<string, []>("model_tcn_residual_block_0_conv1D_0_BiasAdd_ReadVariableOp_to_fp16"), val = tensor<fp16, [64]>(BLOBFILE(path = tensor<string, []>("@model_path/weights/weight.bin"), offset = tensor<uint64, []>(406400)))];
            tensor<fp16, [1, 4096, 64]> model_tcn_residual_block_0_conv1D_0_BiasAdd_cast = add(x = model_tcn_residual_block_0_conv1D_0_conv1d_Squeeze_cast, y = model_tcn_residual_block_0_conv1D_0_BiasAdd_ReadVariableOp_to_fp16);
            tensor<fp16, [1, 4096, 64]> model_tcn_residual_block_0_activation_Relu_cast = relu(x = model_tcn_residual_block_0_conv1D_0_BiasAdd_cast);
            tensor<int32, [1]> model_tcn_residual_block_0_conv1D_1_conv1d_ExpandDims_axes_0 = const()[name = tensor<string, []>("model_tcn_residual_block_0_conv1D_1_conv1d_ExpandDims_axes_0"), val = tensor<int32, [1]>([-3])];
            tensor<fp16, [1, 1, 4096, 64]> model_tcn_residual_block_0_conv1D_1_conv1d_ExpandDims_cast = expand_dims(axes = model_tcn_residual_block_0_conv1D_1_conv1d_ExpandDims_axes_0, x = model_tcn_residual_block_0_activation_Relu_cast);
            tensor<int32, [4]> transpose_83_perm_0 = const()[name = tensor<string, []>("transpose_83_perm_0"), val = tensor<int32, [4]>([0, 3, 1, 2])];
            tensor<string, []> model_tcn_residual_block_0_conv1D_1_conv1dx_pad_type_0 = const()[name = tensor<string, []>("model_tcn_residual_block_0_conv1D_1_conv1dx_pad_type_0"), val = tensor<string, []>("same")];
            tensor<int32, [2]> model_tcn_residual_block_0_conv1D_1_conv1dx_strides_0 = const()[name = tensor<string, []>("model_tcn_residual_block_0_conv1D_1_conv1dx_strides_0"), val = tensor<int32, [2]>([1, 1])];
            tensor<int32, [2]> model_tcn_residual_block_0_conv1D_1_conv1dx_dilations_0 = const()[name = tensor<string, []>("model_tcn_residual_block_0_conv1D_1_conv1dx_dilations_0"), val = tensor<int32, [2]>([1, 1])];
            tensor<int32, []> model_tcn_residual_block_0_conv1D_1_conv1dx_groups_0 = const()[name = tensor<string, []>("model_tcn_residual_block_0_conv1D_1_conv1dx_groups_0"), val = tensor<int32, []>(1)];
            tensor<int32, [4]> model_tcn_residual_block_0_conv1D_1_conv1dx_pad_0 = const()[name = tensor<string, []>("model_tcn_residual_block_0_conv1D_1_conv1dx_pad_0"), val = tensor<int32, [4]>([0, 0, 0, 0])];
            tensor<fp16, [64, 64, 1, 7]> transpose_82_to_fp16 = const()[name = tensor<string, []>("transpose_82_to_fp16"), val = tensor<fp16, [64, 64, 1, 7]>(BLOBFILE(path = tensor<string, []>("@model_path/weights/weight.bin"), offset = tensor<uint64, []>(406592)))];
            tensor<fp16, [1, 64, 1, 4096]> transpose_229 = transpose(perm = transpose_83_perm_0, x = model_tcn_residual_block_0_conv1D_1_conv1d_ExpandDims_cast);
            tensor<fp16, [1, 64, 1, 4096]> model_tcn_residual_block_0_conv1D_1_conv1dx_cast = conv(dilations = model_tcn_residual_block_0_conv1D_1_conv1dx_dilations_0, groups = model_tcn_residual_block_0_conv1D_1_conv1dx_groups_0, pad = model_tcn_residual_block_0_conv1D_1_conv1dx_pad_0, pad_type = model_tcn_residual_block_0_conv1D_1_conv1dx_pad_type_0, strides = model_tcn_residual_block_0_conv1D_1_conv1dx_strides_0, weight = transpose_82_to_fp16, x = transpose_229);
            tensor<int32, [4]> model_tcn_residual_block_0_conv1D_1_conv1d_perm_0 = const()[name = tensor<string, []>("model_tcn_residual_block_0_conv1D_1_conv1d_perm_0"), val = tensor<int32, [4]>([0, 2, 3, 1])];
            tensor<int32, [1]> model_tcn_residual_block_0_conv1D_1_conv1d_Squeeze_axes_0 = const()[name = tensor<string, []>("model_tcn_residual_block_0_conv1D_1_conv1d_Squeeze_axes_0"), val = tensor<int32, [1]>([-3])];
            tensor<fp16, [1, 1, 4096, 64]> transpose_228 = transpose(perm = model_tcn_residual_block_0_conv1D_1_conv1d_perm_0, x = model_tcn_residual_block_0_conv1D_1_conv1dx_cast);
            tensor<fp16, [1, 4096, 64]> model_tcn_residual_block_0_conv1D_1_conv1d_Squeeze_cast = squeeze(axes = model_tcn_residual_block_0_conv1D_1_conv1d_Squeeze_axes_0, x = transpose_228);
            tensor<fp16, [64]> model_tcn_residual_block_0_conv1D_1_BiasAdd_ReadVariableOp_to_fp16 = const()[name = tensor<string, []>("model_tcn_residual_block_0_conv1D_1_BiasAdd_ReadVariableOp_to_fp16"), val = tensor<fp16, [64]>(BLOBFILE(path = tensor<string, []>("@model_path/weights/weight.bin"), offset = tensor<uint64, []>(464000)))];
            tensor<fp16, [1, 4096, 64]> model_tcn_residual_block_0_conv1D_1_BiasAdd_cast = add(x = model_tcn_residual_block_0_conv1D_1_conv1d_Squeeze_cast, y = model_tcn_residual_block_0_conv1D_1_BiasAdd_ReadVariableOp_to_fp16);
            tensor<fp16, [1, 4096, 64]> model_tcn_residual_block_0_activation_1_Relu_cast = relu(x = model_tcn_residual_block_0_conv1D_1_BiasAdd_cast);
            tensor<fp16, [1, 4096, 64]> model_tcn_residual_block_0_add_add_cast = add(x = model_tcn_residual_block_0_matching_conv1D_BiasAdd_cast, y = model_tcn_residual_block_0_activation_1_Relu_cast);
            tensor<fp16, []> elu_13_alpha_0_to_fp16 = const()[name = tensor<string, []>("elu_13_alpha_0_to_fp16"), val = tensor<fp16, []>(0x1.ac4p+0)];
            tensor<fp16, [1, 4096, 64]> elu_13_cast = elu(alpha = elu_13_alpha_0_to_fp16, x = model_tcn_residual_block_0_add_add_cast);
            tensor<fp16, []> model_tcn_residual_block_0_activation_2_Selu_y_0_to_fp16 = const()[name = tensor<string, []>("model_tcn_residual_block_0_activation_2_Selu_y_0_to_fp16"), val = tensor<fp16, []>(0x1.0dp+0)];
            tensor<fp16, [1, 4096, 64]> model_tcn_residual_block_0_activation_2_Selu_cast = mul(x = elu_13_cast, y = model_tcn_residual_block_0_activation_2_Selu_y_0_to_fp16);
            tensor<int32, [6]> pad_0_pad_0 = const()[name = tensor<string, []>("pad_0_pad_0"), val = tensor<int32, [6]>([0, 0, 6, 6, 0, 0])];
            tensor<string, []> pad_0_mode_0 = const()[name = tensor<string, []>("pad_0_mode_0"), val = tensor<string, []>("constant")];
            tensor<fp16, []> pad_0_constant_val_0_to_fp16 = const()[name = tensor<string, []>("pad_0_constant_val_0_to_fp16"), val = tensor<fp16, []>(0x0p+0)];
            tensor<fp16, [1, 4108, 64]> pad_0_cast = pad(constant_val = pad_0_constant_val_0_to_fp16, mode = pad_0_mode_0, pad = pad_0_pad_0, x = model_tcn_residual_block_0_activation_2_Selu_cast);
            tensor<int32, [4]> concat_0 = const()[name = tensor<string, []>("concat_0"), val = tensor<int32, [4]>([1, 2054, 2, 64])];
            tensor<fp16, [1, 2054, 2, 64]> reshape_0_cast = reshape(shape = concat_0, x = pad_0_cast);
            tensor<int32, [4]> transpose_84_perm_0 = const()[name = tensor<string, []>("transpose_84_perm_0"), val = tensor<int32, [4]>([2, 0, 1, 3])];
            tensor<int32, [3]> concat_1 = const()[name = tensor<string, []>("concat_1"), val = tensor<int32, [3]>([2, 2054, 64])];
            tensor<fp16, [2, 1, 2054, 64]> transpose_227 = transpose(perm = transpose_84_perm_0, x = reshape_0_cast);
            tensor<fp16, [2, 2054, 64]> model_tcn_residual_block_1_conv1D_0_conv1d_SpaceToBatchND_cast = reshape(shape = concat_1, x = transpose_227);
            tensor<int32, [1]> model_tcn_residual_block_1_conv1D_0_conv1d_ExpandDims_axes_0 = const()[name = tensor<string, []>("model_tcn_residual_block_1_conv1D_0_conv1d_ExpandDims_axes_0"), val = tensor<int32, [1]>([-3])];
            tensor<fp16, [2, 1, 2054, 64]> model_tcn_residual_block_1_conv1D_0_conv1d_ExpandDims_cast = expand_dims(axes = model_tcn_residual_block_1_conv1D_0_conv1d_ExpandDims_axes_0, x = model_tcn_residual_block_1_conv1D_0_conv1d_SpaceToBatchND_cast);
            tensor<int32, [4]> transpose_86_perm_0 = const()[name = tensor<string, []>("transpose_86_perm_0"), val = tensor<int32, [4]>([0, 3, 1, 2])];
            tensor<string, []> model_tcn_residual_block_1_conv1D_0_conv1dx_pad_type_0 = const()[name = tensor<string, []>("model_tcn_residual_block_1_conv1D_0_conv1dx_pad_type_0"), val = tensor<string, []>("valid")];
            tensor<int32, [2]> model_tcn_residual_block_1_conv1D_0_conv1dx_strides_0 = const()[name = tensor<string, []>("model_tcn_residual_block_1_conv1D_0_conv1dx_strides_0"), val = tensor<int32, [2]>([1, 1])];
            tensor<int32, [2]> model_tcn_residual_block_1_conv1D_0_conv1dx_dilations_0 = const()[name = tensor<string, []>("model_tcn_residual_block_1_conv1D_0_conv1dx_dilations_0"), val = tensor<int32, [2]>([1, 1])];
            tensor<int32, []> model_tcn_residual_block_1_conv1D_0_conv1dx_groups_0 = const()[name = tensor<string, []>("model_tcn_residual_block_1_conv1D_0_conv1dx_groups_0"), val = tensor<int32, []>(1)];
            tensor<int32, [4]> model_tcn_residual_block_1_conv1D_0_conv1dx_pad_0 = const()[name = tensor<string, []>("model_tcn_residual_block_1_conv1D_0_conv1dx_pad_0"), val = tensor<int32, [4]>([0, 0, 0, 0])];
            tensor<fp16, [64, 64, 1, 7]> transpose_85_to_fp16 = const()[name = tensor<string, []>("transpose_85_to_fp16"), val = tensor<fp16, [64, 64, 1, 7]>(BLOBFILE(path = tensor<string, []>("@model_path/weights/weight.bin"), offset = tensor<uint64, []>(464192)))];
            tensor<fp16, [2, 64, 1, 2054]> transpose_226 = transpose(perm = transpose_86_perm_0, x = model_tcn_residual_block_1_conv1D_0_conv1d_ExpandDims_cast);
            tensor<fp16, [2, 64, 1, 2048]> model_tcn_residual_block_1_conv1D_0_conv1dx_cast = conv(dilations = model_tcn_residual_block_1_conv1D_0_conv1dx_dilations_0, groups = model_tcn_residual_block_1_conv1D_0_conv1dx_groups_0, pad = model_tcn_residual_block_1_conv1D_0_conv1dx_pad_0, pad_type = model_tcn_residual_block_1_conv1D_0_conv1dx_pad_type_0, strides = model_tcn_residual_block_1_conv1D_0_conv1dx_strides_0, weight = transpose_85_to_fp16, x = transpose_226);
            tensor<int32, [4]> model_tcn_residual_block_1_conv1D_0_conv1d_perm_0 = const()[name = tensor<string, []>("model_tcn_residual_block_1_conv1D_0_conv1d_perm_0"), val = tensor<int32, [4]>([0, 2, 3, 1])];
            tensor<int32, [1]> model_tcn_residual_block_1_conv1D_0_conv1d_Squeeze_axes_0 = const()[name = tensor<string, []>("model_tcn_residual_block_1_conv1D_0_conv1d_Squeeze_axes_0"), val = tensor<int32, [1]>([-3])];
            tensor<fp16, [2, 1, 2048, 64]> transpose_225 = transpose(perm = model_tcn_residual_block_1_conv1D_0_conv1d_perm_0, x = model_tcn_residual_block_1_conv1D_0_conv1dx_cast);
            tensor<fp16, [2, 2048, 64]> model_tcn_residual_block_1_conv1D_0_conv1d_Squeeze_cast = squeeze(axes = model_tcn_residual_block_1_conv1D_0_conv1d_Squeeze_axes_0, x = transpose_225);
            tensor<int32, [4]> concat_2 = const()[name = tensor<string, []>("concat_2"), val = tensor<int32, [4]>([2, 1, 2048, 64])];
            tensor<fp16, [2, 1, 2048, 64]> reshape_1_cast = reshape(shape = concat_2, x = model_tcn_residual_block_1_conv1D_0_conv1d_Squeeze_cast);
            tensor<int32, [4]> transpose_87_perm_0 = const()[name = tensor<string, []>("transpose_87_perm_0"), val = tensor<int32, [4]>([1, 2, 0, 3])];
            tensor<int32, [3]> concat_3 = const()[name = tensor<string, []>("concat_3"), val = tensor<int32, [3]>([1, 4096, 64])];
            tensor<fp16, [1, 2048, 2, 64]> transpose_224 = transpose(perm = transpose_87_perm_0, x = reshape_1_cast);
            tensor<fp16, [1, 4096, 64]> reshape_2_cast = reshape(shape = concat_3, x = transpose_224);
            tensor<fp16, [64]> model_tcn_residual_block_1_conv1D_0_BiasAdd_ReadVariableOp_to_fp16 = const()[name = tensor<string, []>("model_tcn_residual_block_1_conv1D_0_BiasAdd_ReadVariableOp_to_fp16"), val = tensor<fp16, [64]>(BLOBFILE(path = tensor<string, []>("@model_path/weights/weight.bin"), offset = tensor<uint64, []>(521600)))];
            tensor<fp16, [1, 4096, 64]> model_tcn_residual_block_1_conv1D_0_BiasAdd_cast = add(x = reshape_2_cast, y = model_tcn_residual_block_1_conv1D_0_BiasAdd_ReadVariableOp_to_fp16);
            tensor<fp16, [1, 4096, 64]> model_tcn_residual_block_1_activation_3_Relu_cast = relu(x = model_tcn_residual_block_1_conv1D_0_BiasAdd_cast);
            tensor<int32, [6]> pad_1_pad_0 = const()[name = tensor<string, []>("pad_1_pad_0"), val = tensor<int32, [6]>([0, 0, 6, 6, 0, 0])];
            tensor<string, []> pad_1_mode_0 = const()[name = tensor<string, []>("pad_1_mode_0"), val = tensor<string, []>("constant")];
            tensor<fp16, []> pad_1_constant_val_0_to_fp16 = const()[name = tensor<string, []>("pad_1_constant_val_0_to_fp16"), val = tensor<fp16, []>(0x0p+0)];
            tensor<fp16, [1, 4108, 64]> pad_1_cast = pad(constant_val = pad_1_constant_val_0_to_fp16, mode = pad_1_mode_0, pad = pad_1_pad_0, x = model_tcn_residual_block_1_activation_3_Relu_cast);
            tensor<int32, [4]> concat_5 = const()[name = tensor<string, []>("concat_5"), val = tensor<int32, [4]>([1, 2054, 2, 64])];
            tensor<fp16, [1, 2054, 2, 64]> reshape_3_cast = reshape(shape = concat_5, x = pad_1_cast);
            tensor<int32, [4]> transpose_88_perm_0 = const()[name = tensor<string, []>("transpose_88_perm_0"), val = tensor<int32, [4]>([2, 0, 1, 3])];
            tensor<int32, [3]> concat_6 = const()[name = tensor<string, []>("concat_6"), val = tensor<int32, [3]>([2, 2054, 64])];
            tensor<fp16, [2, 1, 2054, 64]> transpose_223 = transpose(perm = transpose_88_perm_0, x = reshape_3_cast);
            tensor<fp16, [2, 2054, 64]> model_tcn_residual_block_1_conv1D_1_conv1d_SpaceToBatchND_cast = reshape(shape = concat_6, x = transpose_223);
            tensor<int32, [1]> model_tcn_residual_block_1_conv1D_1_conv1d_ExpandDims_axes_0 = const()[name = tensor<string, []>("model_tcn_residual_block_1_conv1D_1_conv1d_ExpandDims_axes_0"), val = tensor<int32, [1]>([-3])];
            tensor<fp16, [2, 1, 2054, 64]> model_tcn_residual_block_1_conv1D_1_conv1d_ExpandDims_cast = expand_dims(axes = model_tcn_residual_block_1_conv1D_1_conv1d_ExpandDims_axes_0, x = model_tcn_residual_block_1_conv1D_1_conv1d_SpaceToBatchND_cast);
            tensor<int32, [4]> transpose_90_perm_0 = const()[name = tensor<string, []>("transpose_90_perm_0"), val = tensor<int32, [4]>([0, 3, 1, 2])];
            tensor<string, []> model_tcn_residual_block_1_conv1D_1_conv1dx_pad_type_0 = const()[name = tensor<string, []>("model_tcn_residual_block_1_conv1D_1_conv1dx_pad_type_0"), val = tensor<string, []>("valid")];
            tensor<int32, [2]> model_tcn_residual_block_1_conv1D_1_conv1dx_strides_0 = const()[name = tensor<string, []>("model_tcn_residual_block_1_conv1D_1_conv1dx_strides_0"), val = tensor<int32, [2]>([1, 1])];
            tensor<int32, [2]> model_tcn_residual_block_1_conv1D_1_conv1dx_dilations_0 = const()[name = tensor<string, []>("model_tcn_residual_block_1_conv1D_1_conv1dx_dilations_0"), val = tensor<int32, [2]>([1, 1])];
            tensor<int32, []> model_tcn_residual_block_1_conv1D_1_conv1dx_groups_0 = const()[name = tensor<string, []>("model_tcn_residual_block_1_conv1D_1_conv1dx_groups_0"), val = tensor<int32, []>(1)];
            tensor<int32, [4]> model_tcn_residual_block_1_conv1D_1_conv1dx_pad_0 = const()[name = tensor<string, []>("model_tcn_residual_block_1_conv1D_1_conv1dx_pad_0"), val = tensor<int32, [4]>([0, 0, 0, 0])];
            tensor<fp16, [64, 64, 1, 7]> transpose_89_to_fp16 = const()[name = tensor<string, []>("transpose_89_to_fp16"), val = tensor<fp16, [64, 64, 1, 7]>(BLOBFILE(path = tensor<string, []>("@model_path/weights/weight.bin"), offset = tensor<uint64, []>(521792)))];
            tensor<fp16, [2, 64, 1, 2054]> transpose_222 = transpose(perm = transpose_90_perm_0, x = model_tcn_residual_block_1_conv1D_1_conv1d_ExpandDims_cast);
            tensor<fp16, [2, 64, 1, 2048]> model_tcn_residual_block_1_conv1D_1_conv1dx_cast = conv(dilations = model_tcn_residual_block_1_conv1D_1_conv1dx_dilations_0, groups = model_tcn_residual_block_1_conv1D_1_conv1dx_groups_0, pad = model_tcn_residual_block_1_conv1D_1_conv1dx_pad_0, pad_type = model_tcn_residual_block_1_conv1D_1_conv1dx_pad_type_0, strides = model_tcn_residual_block_1_conv1D_1_conv1dx_strides_0, weight = transpose_89_to_fp16, x = transpose_222);
            tensor<int32, [4]> model_tcn_residual_block_1_conv1D_1_conv1d_perm_0 = const()[name = tensor<string, []>("model_tcn_residual_block_1_conv1D_1_conv1d_perm_0"), val = tensor<int32, [4]>([0, 2, 3, 1])];
            tensor<int32, [1]> model_tcn_residual_block_1_conv1D_1_conv1d_Squeeze_axes_0 = const()[name = tensor<string, []>("model_tcn_residual_block_1_conv1D_1_conv1d_Squeeze_axes_0"), val = tensor<int32, [1]>([-3])];
            tensor<fp16, [2, 1, 2048, 64]> transpose_221 = transpose(perm = model_tcn_residual_block_1_conv1D_1_conv1d_perm_0, x = model_tcn_residual_block_1_conv1D_1_conv1dx_cast);
            tensor<fp16, [2, 2048, 64]> model_tcn_residual_block_1_conv1D_1_conv1d_Squeeze_cast = squeeze(axes = model_tcn_residual_block_1_conv1D_1_conv1d_Squeeze_axes_0, x = transpose_221);
            tensor<int32, [4]> concat_7 = const()[name = tensor<string, []>("concat_7"), val = tensor<int32, [4]>([2, 1, 2048, 64])];
            tensor<fp16, [2, 1, 2048, 64]> reshape_4_cast = reshape(shape = concat_7, x = model_tcn_residual_block_1_conv1D_1_conv1d_Squeeze_cast);
            tensor<int32, [4]> transpose_91_perm_0 = const()[name = tensor<string, []>("transpose_91_perm_0"), val = tensor<int32, [4]>([1, 2, 0, 3])];
            tensor<int32, [3]> concat_8 = const()[name = tensor<string, []>("concat_8"), val = tensor<int32, [3]>([1, 4096, 64])];
            tensor<fp16, [1, 2048, 2, 64]> transpose_220 = transpose(perm = transpose_91_perm_0, x = reshape_4_cast);
            tensor<fp16, [1, 4096, 64]> reshape_5_cast = reshape(shape = concat_8, x = transpose_220);
            tensor<fp16, [64]> model_tcn_residual_block_1_conv1D_1_BiasAdd_ReadVariableOp_to_fp16 = const()[name = tensor<string, []>("model_tcn_residual_block_1_conv1D_1_BiasAdd_ReadVariableOp_to_fp16"), val = tensor<fp16, [64]>(BLOBFILE(path = tensor<string, []>("@model_path/weights/weight.bin"), offset = tensor<uint64, []>(579200)))];
            tensor<fp16, [1, 4096, 64]> model_tcn_residual_block_1_conv1D_1_BiasAdd_cast = add(x = reshape_5_cast, y = model_tcn_residual_block_1_conv1D_1_BiasAdd_ReadVariableOp_to_fp16);
            tensor<fp16, [1, 4096, 64]> model_tcn_residual_block_1_activation_4_Relu_cast = relu(x = model_tcn_residual_block_1_conv1D_1_BiasAdd_cast);
            tensor<fp16, [1, 4096, 64]> model_tcn_add_10_add_cast = add(x = model_tcn_residual_block_0_activation_1_Relu_cast, y = model_tcn_residual_block_1_activation_4_Relu_cast);
            tensor<fp16, [1, 4096, 64]> model_tcn_residual_block_1_add_1_add_cast = add(x = model_tcn_residual_block_0_activation_2_Selu_cast, y = model_tcn_residual_block_1_activation_4_Relu_cast);
            tensor<fp16, []> elu_14_alpha_0_to_fp16 = const()[name = tensor<string, []>("elu_14_alpha_0_to_fp16"), val = tensor<fp16, []>(0x1.ac4p+0)];
            tensor<fp16, [1, 4096, 64]> elu_14_cast = elu(alpha = elu_14_alpha_0_to_fp16, x = model_tcn_residual_block_1_add_1_add_cast);
            tensor<fp16, []> model_tcn_residual_block_1_activation_5_Selu_y_0_to_fp16 = const()[name = tensor<string, []>("model_tcn_residual_block_1_activation_5_Selu_y_0_to_fp16"), val = tensor<fp16, []>(0x1.0dp+0)];
            tensor<fp16, [1, 4096, 64]> model_tcn_residual_block_1_activation_5_Selu_cast = mul(x = elu_14_cast, y = model_tcn_residual_block_1_activation_5_Selu_y_0_to_fp16);
            tensor<int32, [6]> pad_2_pad_0 = const()[name = tensor<string, []>("pad_2_pad_0"), val = tensor<int32, [6]>([0, 0, 12, 12, 0, 0])];
            tensor<string, []> pad_2_mode_0 = const()[name = tensor<string, []>("pad_2_mode_0"), val = tensor<string, []>("constant")];
            tensor<fp16, []> pad_2_constant_val_0_to_fp16 = const()[name = tensor<string, []>("pad_2_constant_val_0_to_fp16"), val = tensor<fp16, []>(0x0p+0)];
            tensor<fp16, [1, 4120, 64]> pad_2_cast = pad(constant_val = pad_2_constant_val_0_to_fp16, mode = pad_2_mode_0, pad = pad_2_pad_0, x = model_tcn_residual_block_1_activation_5_Selu_cast);
            tensor<int32, [4]> concat_10 = const()[name = tensor<string, []>("concat_10"), val = tensor<int32, [4]>([1, 1030, 4, 64])];
            tensor<fp16, [1, 1030, 4, 64]> reshape_6_cast = reshape(shape = concat_10, x = pad_2_cast);
            tensor<int32, [4]> transpose_92_perm_0 = const()[name = tensor<string, []>("transpose_92_perm_0"), val = tensor<int32, [4]>([2, 0, 1, 3])];
            tensor<int32, [3]> concat_11 = const()[name = tensor<string, []>("concat_11"), val = tensor<int32, [3]>([4, 1030, 64])];
            tensor<fp16, [4, 1, 1030, 64]> transpose_219 = transpose(perm = transpose_92_perm_0, x = reshape_6_cast);
            tensor<fp16, [4, 1030, 64]> model_tcn_residual_block_2_conv1D_0_conv1d_SpaceToBatchND_cast = reshape(shape = concat_11, x = transpose_219);
            tensor<int32, [1]> model_tcn_residual_block_2_conv1D_0_conv1d_ExpandDims_axes_0 = const()[name = tensor<string, []>("model_tcn_residual_block_2_conv1D_0_conv1d_ExpandDims_axes_0"), val = tensor<int32, [1]>([-3])];
            tensor<fp16, [4, 1, 1030, 64]> model_tcn_residual_block_2_conv1D_0_conv1d_ExpandDims_cast = expand_dims(axes = model_tcn_residual_block_2_conv1D_0_conv1d_ExpandDims_axes_0, x = model_tcn_residual_block_2_conv1D_0_conv1d_SpaceToBatchND_cast);
            tensor<int32, [4]> transpose_94_perm_0 = const()[name = tensor<string, []>("transpose_94_perm_0"), val = tensor<int32, [4]>([0, 3, 1, 2])];
            tensor<string, []> model_tcn_residual_block_2_conv1D_0_conv1dx_pad_type_0 = const()[name = tensor<string, []>("model_tcn_residual_block_2_conv1D_0_conv1dx_pad_type_0"), val = tensor<string, []>("valid")];
            tensor<int32, [2]> model_tcn_residual_block_2_conv1D_0_conv1dx_strides_0 = const()[name = tensor<string, []>("model_tcn_residual_block_2_conv1D_0_conv1dx_strides_0"), val = tensor<int32, [2]>([1, 1])];
            tensor<int32, [2]> model_tcn_residual_block_2_conv1D_0_conv1dx_dilations_0 = const()[name = tensor<string, []>("model_tcn_residual_block_2_conv1D_0_conv1dx_dilations_0"), val = tensor<int32, [2]>([1, 1])];
            tensor<int32, []> model_tcn_residual_block_2_conv1D_0_conv1dx_groups_0 = const()[name = tensor<string, []>("model_tcn_residual_block_2_conv1D_0_conv1dx_groups_0"), val = tensor<int32, []>(1)];
            tensor<int32, [4]> model_tcn_residual_block_2_conv1D_0_conv1dx_pad_0 = const()[name = tensor<string, []>("model_tcn_residual_block_2_conv1D_0_conv1dx_pad_0"), val = tensor<int32, [4]>([0, 0, 0, 0])];
            tensor<fp16, [64, 64, 1, 7]> transpose_93_to_fp16 = const()[name = tensor<string, []>("transpose_93_to_fp16"), val = tensor<fp16, [64, 64, 1, 7]>(BLOBFILE(path = tensor<string, []>("@model_path/weights/weight.bin"), offset = tensor<uint64, []>(579392)))];
            tensor<fp16, [4, 64, 1, 1030]> transpose_218 = transpose(perm = transpose_94_perm_0, x = model_tcn_residual_block_2_conv1D_0_conv1d_ExpandDims_cast);
            tensor<fp16, [4, 64, 1, 1024]> model_tcn_residual_block_2_conv1D_0_conv1dx_cast = conv(dilations = model_tcn_residual_block_2_conv1D_0_conv1dx_dilations_0, groups = model_tcn_residual_block_2_conv1D_0_conv1dx_groups_0, pad = model_tcn_residual_block_2_conv1D_0_conv1dx_pad_0, pad_type = model_tcn_residual_block_2_conv1D_0_conv1dx_pad_type_0, strides = model_tcn_residual_block_2_conv1D_0_conv1dx_strides_0, weight = transpose_93_to_fp16, x = transpose_218);
            tensor<int32, [4]> model_tcn_residual_block_2_conv1D_0_conv1d_perm_0 = const()[name = tensor<string, []>("model_tcn_residual_block_2_conv1D_0_conv1d_perm_0"), val = tensor<int32, [4]>([0, 2, 3, 1])];
            tensor<int32, [1]> model_tcn_residual_block_2_conv1D_0_conv1d_Squeeze_axes_0 = const()[name = tensor<string, []>("model_tcn_residual_block_2_conv1D_0_conv1d_Squeeze_axes_0"), val = tensor<int32, [1]>([-3])];
            tensor<fp16, [4, 1, 1024, 64]> transpose_217 = transpose(perm = model_tcn_residual_block_2_conv1D_0_conv1d_perm_0, x = model_tcn_residual_block_2_conv1D_0_conv1dx_cast);
            tensor<fp16, [4, 1024, 64]> model_tcn_residual_block_2_conv1D_0_conv1d_Squeeze_cast = squeeze(axes = model_tcn_residual_block_2_conv1D_0_conv1d_Squeeze_axes_0, x = transpose_217);
            tensor<int32, [4]> concat_12 = const()[name = tensor<string, []>("concat_12"), val = tensor<int32, [4]>([4, 1, 1024, 64])];
            tensor<fp16, [4, 1, 1024, 64]> reshape_7_cast = reshape(shape = concat_12, x = model_tcn_residual_block_2_conv1D_0_conv1d_Squeeze_cast);
            tensor<int32, [4]> transpose_95_perm_0 = const()[name = tensor<string, []>("transpose_95_perm_0"), val = tensor<int32, [4]>([1, 2, 0, 3])];
            tensor<int32, [3]> concat_13 = const()[name = tensor<string, []>("concat_13"), val = tensor<int32, [3]>([1, 4096, 64])];
            tensor<fp16, [1, 1024, 4, 64]> transpose_216 = transpose(perm = transpose_95_perm_0, x = reshape_7_cast);
            tensor<fp16, [1, 4096, 64]> reshape_8_cast = reshape(shape = concat_13, x = transpose_216);
            tensor<fp16, [64]> model_tcn_residual_block_2_conv1D_0_BiasAdd_ReadVariableOp_to_fp16 = const()[name = tensor<string, []>("model_tcn_residual_block_2_conv1D_0_BiasAdd_ReadVariableOp_to_fp16"), val = tensor<fp16, [64]>(BLOBFILE(path = tensor<string, []>("@model_path/weights/weight.bin"), offset = tensor<uint64, []>(636800)))];
            tensor<fp16, [1, 4096, 64]> model_tcn_residual_block_2_conv1D_0_BiasAdd_cast = add(x = reshape_8_cast, y = model_tcn_residual_block_2_conv1D_0_BiasAdd_ReadVariableOp_to_fp16);
            tensor<fp16, [1, 4096, 64]> model_tcn_residual_block_2_activation_6_Relu_cast = relu(x = model_tcn_residual_block_2_conv1D_0_BiasAdd_cast);
            tensor<int32, [6]> pad_3_pad_0 = const()[name = tensor<string, []>("pad_3_pad_0"), val = tensor<int32, [6]>([0, 0, 12, 12, 0, 0])];
            tensor<string, []> pad_3_mode_0 = const()[name = tensor<string, []>("pad_3_mode_0"), val = tensor<string, []>("constant")];
            tensor<fp16, []> pad_3_constant_val_0_to_fp16 = const()[name = tensor<string, []>("pad_3_constant_val_0_to_fp16"), val = tensor<fp16, []>(0x0p+0)];
            tensor<fp16, [1, 4120, 64]> pad_3_cast = pad(constant_val = pad_3_constant_val_0_to_fp16, mode = pad_3_mode_0, pad = pad_3_pad_0, x = model_tcn_residual_block_2_activation_6_Relu_cast);
            tensor<int32, [4]> concat_15 = const()[name = tensor<string, []>("concat_15"), val = tensor<int32, [4]>([1, 1030, 4, 64])];
            tensor<fp16, [1, 1030, 4, 64]> reshape_9_cast = reshape(shape = concat_15, x = pad_3_cast);
            tensor<int32, [4]> transpose_96_perm_0 = const()[name = tensor<string, []>("transpose_96_perm_0"), val = tensor<int32, [4]>([2, 0, 1, 3])];
            tensor<int32, [3]> concat_16 = const()[name = tensor<string, []>("concat_16"), val = tensor<int32, [3]>([4, 1030, 64])];
            tensor<fp16, [4, 1, 1030, 64]> transpose_215 = transpose(perm = transpose_96_perm_0, x = reshape_9_cast);
            tensor<fp16, [4, 1030, 64]> model_tcn_residual_block_2_conv1D_1_conv1d_SpaceToBatchND_cast = reshape(shape = concat_16, x = transpose_215);
            tensor<int32, [1]> model_tcn_residual_block_2_conv1D_1_conv1d_ExpandDims_axes_0 = const()[name = tensor<string, []>("model_tcn_residual_block_2_conv1D_1_conv1d_ExpandDims_axes_0"), val = tensor<int32, [1]>([-3])];
            tensor<fp16, [4, 1, 1030, 64]> model_tcn_residual_block_2_conv1D_1_conv1d_ExpandDims_cast = expand_dims(axes = model_tcn_residual_block_2_conv1D_1_conv1d_ExpandDims_axes_0, x = model_tcn_residual_block_2_conv1D_1_conv1d_SpaceToBatchND_cast);
            tensor<int32, [4]> transpose_98_perm_0 = const()[name = tensor<string, []>("transpose_98_perm_0"), val = tensor<int32, [4]>([0, 3, 1, 2])];
            tensor<string, []> model_tcn_residual_block_2_conv1D_1_conv1dx_pad_type_0 = const()[name = tensor<string, []>("model_tcn_residual_block_2_conv1D_1_conv1dx_pad_type_0"), val = tensor<string, []>("valid")];
            tensor<int32, [2]> model_tcn_residual_block_2_conv1D_1_conv1dx_strides_0 = const()[name = tensor<string, []>("model_tcn_residual_block_2_conv1D_1_conv1dx_strides_0"), val = tensor<int32, [2]>([1, 1])];
            tensor<int32, [2]> model_tcn_residual_block_2_conv1D_1_conv1dx_dilations_0 = const()[name = tensor<string, []>("model_tcn_residual_block_2_conv1D_1_conv1dx_dilations_0"), val = tensor<int32, [2]>([1, 1])];
            tensor<int32, []> model_tcn_residual_block_2_conv1D_1_conv1dx_groups_0 = const()[name = tensor<string, []>("model_tcn_residual_block_2_conv1D_1_conv1dx_groups_0"), val = tensor<int32, []>(1)];
            tensor<int32, [4]> model_tcn_residual_block_2_conv1D_1_conv1dx_pad_0 = const()[name = tensor<string, []>("model_tcn_residual_block_2_conv1D_1_conv1dx_pad_0"), val = tensor<int32, [4]>([0, 0, 0, 0])];
            tensor<fp16, [64, 64, 1, 7]> transpose_97_to_fp16 = const()[name = tensor<string, []>("transpose_97_to_fp16"), val = tensor<fp16, [64, 64, 1, 7]>(BLOBFILE(path = tensor<string, []>("@model_path/weights/weight.bin"), offset = tensor<uint64, []>(636992)))];
            tensor<fp16, [4, 64, 1, 1030]> transpose_214 = transpose(perm = transpose_98_perm_0, x = model_tcn_residual_block_2_conv1D_1_conv1d_ExpandDims_cast);
            tensor<fp16, [4, 64, 1, 1024]> model_tcn_residual_block_2_conv1D_1_conv1dx_cast = conv(dilations = model_tcn_residual_block_2_conv1D_1_conv1dx_dilations_0, groups = model_tcn_residual_block_2_conv1D_1_conv1dx_groups_0, pad = model_tcn_residual_block_2_conv1D_1_conv1dx_pad_0, pad_type = model_tcn_residual_block_2_conv1D_1_conv1dx_pad_type_0, strides = model_tcn_residual_block_2_conv1D_1_conv1dx_strides_0, weight = transpose_97_to_fp16, x = transpose_214);
            tensor<int32, [4]> model_tcn_residual_block_2_conv1D_1_conv1d_perm_0 = const()[name = tensor<string, []>("model_tcn_residual_block_2_conv1D_1_conv1d_perm_0"), val = tensor<int32, [4]>([0, 2, 3, 1])];
            tensor<int32, [1]> model_tcn_residual_block_2_conv1D_1_conv1d_Squeeze_axes_0 = const()[name = tensor<string, []>("model_tcn_residual_block_2_conv1D_1_conv1d_Squeeze_axes_0"), val = tensor<int32, [1]>([-3])];
            tensor<fp16, [4, 1, 1024, 64]> transpose_213 = transpose(perm = model_tcn_residual_block_2_conv1D_1_conv1d_perm_0, x = model_tcn_residual_block_2_conv1D_1_conv1dx_cast);
            tensor<fp16, [4, 1024, 64]> model_tcn_residual_block_2_conv1D_1_conv1d_Squeeze_cast = squeeze(axes = model_tcn_residual_block_2_conv1D_1_conv1d_Squeeze_axes_0, x = transpose_213);
            tensor<int32, [4]> concat_17 = const()[name = tensor<string, []>("concat_17"), val = tensor<int32, [4]>([4, 1, 1024, 64])];
            tensor<fp16, [4, 1, 1024, 64]> reshape_10_cast = reshape(shape = concat_17, x = model_tcn_residual_block_2_conv1D_1_conv1d_Squeeze_cast);
            tensor<int32, [4]> transpose_99_perm_0 = const()[name = tensor<string, []>("transpose_99_perm_0"), val = tensor<int32, [4]>([1, 2, 0, 3])];
            tensor<int32, [3]> concat_18 = const()[name = tensor<string, []>("concat_18"), val = tensor<int32, [3]>([1, 4096, 64])];
            tensor<fp16, [1, 1024, 4, 64]> transpose_212 = transpose(perm = transpose_99_perm_0, x = reshape_10_cast);
            tensor<fp16, [1, 4096, 64]> reshape_11_cast = reshape(shape = concat_18, x = transpose_212);
            tensor<fp16, [64]> model_tcn_residual_block_2_conv1D_1_BiasAdd_ReadVariableOp_to_fp16 = const()[name = tensor<string, []>("model_tcn_residual_block_2_conv1D_1_BiasAdd_ReadVariableOp_to_fp16"), val = tensor<fp16, [64]>(BLOBFILE(path = tensor<string, []>("@model_path/weights/weight.bin"), offset = tensor<uint64, []>(694400)))];
            tensor<fp16, [1, 4096, 64]> model_tcn_residual_block_2_conv1D_1_BiasAdd_cast = add(x = reshape_11_cast, y = model_tcn_residual_block_2_conv1D_1_BiasAdd_ReadVariableOp_to_fp16);
            tensor<fp16, [1, 4096, 64]> model_tcn_residual_block_2_activation_7_Relu_cast = relu(x = model_tcn_residual_block_2_conv1D_1_BiasAdd_cast);
            tensor<fp16, [1, 4096, 64]> model_tcn_add_10_add_1_cast = add(x = model_tcn_add_10_add_cast, y = model_tcn_residual_block_2_activation_7_Relu_cast);
            tensor<fp16, [1, 4096, 64]> model_tcn_residual_block_2_add_2_add_cast = add(x = model_tcn_residual_block_1_activation_5_Selu_cast, y = model_tcn_residual_block_2_activation_7_Relu_cast);
            tensor<fp16, []> elu_15_alpha_0_to_fp16 = const()[name = tensor<string, []>("elu_15_alpha_0_to_fp16"), val = tensor<fp16, []>(0x1.ac4p+0)];
            tensor<fp16, [1, 4096, 64]> elu_15_cast = elu(alpha = elu_15_alpha_0_to_fp16, x = model_tcn_residual_block_2_add_2_add_cast);
            tensor<fp16, []> model_tcn_residual_block_2_activation_8_Selu_y_0_to_fp16 = const()[name = tensor<string, []>("model_tcn_residual_block_2_activation_8_Selu_y_0_to_fp16"), val = tensor<fp16, []>(0x1.0dp+0)];
            tensor<fp16, [1, 4096, 64]> model_tcn_residual_block_2_activation_8_Selu_cast = mul(x = elu_15_cast, y = model_tcn_residual_block_2_activation_8_Selu_y_0_to_fp16);
            tensor<int32, [6]> pad_4_pad_0 = const()[name = tensor<string, []>("pad_4_pad_0"), val = tensor<int32, [6]>([0, 0, 24, 24, 0, 0])];
            tensor<string, []> pad_4_mode_0 = const()[name = tensor<string, []>("pad_4_mode_0"), val = tensor<string, []>("constant")];
            tensor<fp16, []> pad_4_constant_val_0_to_fp16 = const()[name = tensor<string, []>("pad_4_constant_val_0_to_fp16"), val = tensor<fp16, []>(0x0p+0)];
            tensor<fp16, [1, 4144, 64]> pad_4_cast = pad(constant_val = pad_4_constant_val_0_to_fp16, mode = pad_4_mode_0, pad = pad_4_pad_0, x = model_tcn_residual_block_2_activation_8_Selu_cast);
            tensor<int32, [4]> concat_20 = const()[name = tensor<string, []>("concat_20"), val = tensor<int32, [4]>([1, 518, 8, 64])];
            tensor<fp16, [1, 518, 8, 64]> reshape_12_cast = reshape(shape = concat_20, x = pad_4_cast);
            tensor<int32, [4]> transpose_100_perm_0 = const()[name = tensor<string, []>("transpose_100_perm_0"), val = tensor<int32, [4]>([2, 0, 1, 3])];
            tensor<int32, [3]> concat_21 = const()[name = tensor<string, []>("concat_21"), val = tensor<int32, [3]>([8, 518, 64])];
            tensor<fp16, [8, 1, 518, 64]> transpose_211 = transpose(perm = transpose_100_perm_0, x = reshape_12_cast);
            tensor<fp16, [8, 518, 64]> model_tcn_residual_block_3_conv1D_0_conv1d_SpaceToBatchND_cast = reshape(shape = concat_21, x = transpose_211);
            tensor<int32, [1]> model_tcn_residual_block_3_conv1D_0_conv1d_ExpandDims_axes_0 = const()[name = tensor<string, []>("model_tcn_residual_block_3_conv1D_0_conv1d_ExpandDims_axes_0"), val = tensor<int32, [1]>([-3])];
            tensor<fp16, [8, 1, 518, 64]> model_tcn_residual_block_3_conv1D_0_conv1d_ExpandDims_cast = expand_dims(axes = model_tcn_residual_block_3_conv1D_0_conv1d_ExpandDims_axes_0, x = model_tcn_residual_block_3_conv1D_0_conv1d_SpaceToBatchND_cast);
            tensor<int32, [4]> transpose_102_perm_0 = const()[name = tensor<string, []>("transpose_102_perm_0"), val = tensor<int32, [4]>([0, 3, 1, 2])];
            tensor<string, []> model_tcn_residual_block_3_conv1D_0_conv1dx_pad_type_0 = const()[name = tensor<string, []>("model_tcn_residual_block_3_conv1D_0_conv1dx_pad_type_0"), val = tensor<string, []>("valid")];
            tensor<int32, [2]> model_tcn_residual_block_3_conv1D_0_conv1dx_strides_0 = const()[name = tensor<string, []>("model_tcn_residual_block_3_conv1D_0_conv1dx_strides_0"), val = tensor<int32, [2]>([1, 1])];
            tensor<int32, [2]> model_tcn_residual_block_3_conv1D_0_conv1dx_dilations_0 = const()[name = tensor<string, []>("model_tcn_residual_block_3_conv1D_0_conv1dx_dilations_0"), val = tensor<int32, [2]>([1, 1])];
            tensor<int32, []> model_tcn_residual_block_3_conv1D_0_conv1dx_groups_0 = const()[name = tensor<string, []>("model_tcn_residual_block_3_conv1D_0_conv1dx_groups_0"), val = tensor<int32, []>(1)];
            tensor<int32, [4]> model_tcn_residual_block_3_conv1D_0_conv1dx_pad_0 = const()[name = tensor<string, []>("model_tcn_residual_block_3_conv1D_0_conv1dx_pad_0"), val = tensor<int32, [4]>([0, 0, 0, 0])];
            tensor<fp16, [64, 64, 1, 7]> transpose_101_to_fp16 = const()[name = tensor<string, []>("transpose_101_to_fp16"), val = tensor<fp16, [64, 64, 1, 7]>(BLOBFILE(path = tensor<string, []>("@model_path/weights/weight.bin"), offset = tensor<uint64, []>(694592)))];
            tensor<fp16, [8, 64, 1, 518]> transpose_210 = transpose(perm = transpose_102_perm_0, x = model_tcn_residual_block_3_conv1D_0_conv1d_ExpandDims_cast);
            tensor<fp16, [8, 64, 1, 512]> model_tcn_residual_block_3_conv1D_0_conv1dx_cast = conv(dilations = model_tcn_residual_block_3_conv1D_0_conv1dx_dilations_0, groups = model_tcn_residual_block_3_conv1D_0_conv1dx_groups_0, pad = model_tcn_residual_block_3_conv1D_0_conv1dx_pad_0, pad_type = model_tcn_residual_block_3_conv1D_0_conv1dx_pad_type_0, strides = model_tcn_residual_block_3_conv1D_0_conv1dx_strides_0, weight = transpose_101_to_fp16, x = transpose_210);
            tensor<int32, [4]> model_tcn_residual_block_3_conv1D_0_conv1d_perm_0 = const()[name = tensor<string, []>("model_tcn_residual_block_3_conv1D_0_conv1d_perm_0"), val = tensor<int32, [4]>([0, 2, 3, 1])];
            tensor<int32, [1]> model_tcn_residual_block_3_conv1D_0_conv1d_Squeeze_axes_0 = const()[name = tensor<string, []>("model_tcn_residual_block_3_conv1D_0_conv1d_Squeeze_axes_0"), val = tensor<int32, [1]>([-3])];
            tensor<fp16, [8, 1, 512, 64]> transpose_209 = transpose(perm = model_tcn_residual_block_3_conv1D_0_conv1d_perm_0, x = model_tcn_residual_block_3_conv1D_0_conv1dx_cast);
            tensor<fp16, [8, 512, 64]> model_tcn_residual_block_3_conv1D_0_conv1d_Squeeze_cast = squeeze(axes = model_tcn_residual_block_3_conv1D_0_conv1d_Squeeze_axes_0, x = transpose_209);
            tensor<int32, [4]> concat_22 = const()[name = tensor<string, []>("concat_22"), val = tensor<int32, [4]>([8, 1, 512, 64])];
            tensor<fp16, [8, 1, 512, 64]> reshape_13_cast = reshape(shape = concat_22, x = model_tcn_residual_block_3_conv1D_0_conv1d_Squeeze_cast);
            tensor<int32, [4]> transpose_103_perm_0 = const()[name = tensor<string, []>("transpose_103_perm_0"), val = tensor<int32, [4]>([1, 2, 0, 3])];
            tensor<int32, [3]> concat_23 = const()[name = tensor<string, []>("concat_23"), val = tensor<int32, [3]>([1, 4096, 64])];
            tensor<fp16, [1, 512, 8, 64]> transpose_208 = transpose(perm = transpose_103_perm_0, x = reshape_13_cast);
            tensor<fp16, [1, 4096, 64]> reshape_14_cast = reshape(shape = concat_23, x = transpose_208);
            tensor<fp16, [64]> model_tcn_residual_block_3_conv1D_0_BiasAdd_ReadVariableOp_to_fp16 = const()[name = tensor<string, []>("model_tcn_residual_block_3_conv1D_0_BiasAdd_ReadVariableOp_to_fp16"), val = tensor<fp16, [64]>(BLOBFILE(path = tensor<string, []>("@model_path/weights/weight.bin"), offset = tensor<uint64, []>(752000)))];
            tensor<fp16, [1, 4096, 64]> model_tcn_residual_block_3_conv1D_0_BiasAdd_cast = add(x = reshape_14_cast, y = model_tcn_residual_block_3_conv1D_0_BiasAdd_ReadVariableOp_to_fp16);
            tensor<fp16, [1, 4096, 64]> model_tcn_residual_block_3_activation_9_Relu_cast = relu(x = model_tcn_residual_block_3_conv1D_0_BiasAdd_cast);
            tensor<int32, [6]> pad_5_pad_0 = const()[name = tensor<string, []>("pad_5_pad_0"), val = tensor<int32, [6]>([0, 0, 24, 24, 0, 0])];
            tensor<string, []> pad_5_mode_0 = const()[name = tensor<string, []>("pad_5_mode_0"), val = tensor<string, []>("constant")];
            tensor<fp16, []> pad_5_constant_val_0_to_fp16 = const()[name = tensor<string, []>("pad_5_constant_val_0_to_fp16"), val = tensor<fp16, []>(0x0p+0)];
            tensor<fp16, [1, 4144, 64]> pad_5_cast = pad(constant_val = pad_5_constant_val_0_to_fp16, mode = pad_5_mode_0, pad = pad_5_pad_0, x = model_tcn_residual_block_3_activation_9_Relu_cast);
            tensor<int32, [4]> concat_25 = const()[name = tensor<string, []>("concat_25"), val = tensor<int32, [4]>([1, 518, 8, 64])];
            tensor<fp16, [1, 518, 8, 64]> reshape_15_cast = reshape(shape = concat_25, x = pad_5_cast);
            tensor<int32, [4]> transpose_104_perm_0 = const()[name = tensor<string, []>("transpose_104_perm_0"), val = tensor<int32, [4]>([2, 0, 1, 3])];
            tensor<int32, [3]> concat_26 = const()[name = tensor<string, []>("concat_26"), val = tensor<int32, [3]>([8, 518, 64])];
            tensor<fp16, [8, 1, 518, 64]> transpose_207 = transpose(perm = transpose_104_perm_0, x = reshape_15_cast);
            tensor<fp16, [8, 518, 64]> model_tcn_residual_block_3_conv1D_1_conv1d_SpaceToBatchND_cast = reshape(shape = concat_26, x = transpose_207);
            tensor<int32, [1]> model_tcn_residual_block_3_conv1D_1_conv1d_ExpandDims_axes_0 = const()[name = tensor<string, []>("model_tcn_residual_block_3_conv1D_1_conv1d_ExpandDims_axes_0"), val = tensor<int32, [1]>([-3])];
            tensor<fp16, [8, 1, 518, 64]> model_tcn_residual_block_3_conv1D_1_conv1d_ExpandDims_cast = expand_dims(axes = model_tcn_residual_block_3_conv1D_1_conv1d_ExpandDims_axes_0, x = model_tcn_residual_block_3_conv1D_1_conv1d_SpaceToBatchND_cast);
            tensor<int32, [4]> transpose_106_perm_0 = const()[name = tensor<string, []>("transpose_106_perm_0"), val = tensor<int32, [4]>([0, 3, 1, 2])];
            tensor<string, []> model_tcn_residual_block_3_conv1D_1_conv1dx_pad_type_0 = const()[name = tensor<string, []>("model_tcn_residual_block_3_conv1D_1_conv1dx_pad_type_0"), val = tensor<string, []>("valid")];
            tensor<int32, [2]> model_tcn_residual_block_3_conv1D_1_conv1dx_strides_0 = const()[name = tensor<string, []>("model_tcn_residual_block_3_conv1D_1_conv1dx_strides_0"), val = tensor<int32, [2]>([1, 1])];
            tensor<int32, [2]> model_tcn_residual_block_3_conv1D_1_conv1dx_dilations_0 = const()[name = tensor<string, []>("model_tcn_residual_block_3_conv1D_1_conv1dx_dilations_0"), val = tensor<int32, [2]>([1, 1])];
            tensor<int32, []> model_tcn_residual_block_3_conv1D_1_conv1dx_groups_0 = const()[name = tensor<string, []>("model_tcn_residual_block_3_conv1D_1_conv1dx_groups_0"), val = tensor<int32, []>(1)];
            tensor<int32, [4]> model_tcn_residual_block_3_conv1D_1_conv1dx_pad_0 = const()[name = tensor<string, []>("model_tcn_residual_block_3_conv1D_1_conv1dx_pad_0"), val = tensor<int32, [4]>([0, 0, 0, 0])];
            tensor<fp16, [64, 64, 1, 7]> transpose_105_to_fp16 = const()[name = tensor<string, []>("transpose_105_to_fp16"), val = tensor<fp16, [64, 64, 1, 7]>(BLOBFILE(path = tensor<string, []>("@model_path/weights/weight.bin"), offset = tensor<uint64, []>(752192)))];
            tensor<fp16, [8, 64, 1, 518]> transpose_206 = transpose(perm = transpose_106_perm_0, x = model_tcn_residual_block_3_conv1D_1_conv1d_ExpandDims_cast);
            tensor<fp16, [8, 64, 1, 512]> model_tcn_residual_block_3_conv1D_1_conv1dx_cast = conv(dilations = model_tcn_residual_block_3_conv1D_1_conv1dx_dilations_0, groups = model_tcn_residual_block_3_conv1D_1_conv1dx_groups_0, pad = model_tcn_residual_block_3_conv1D_1_conv1dx_pad_0, pad_type = model_tcn_residual_block_3_conv1D_1_conv1dx_pad_type_0, strides = model_tcn_residual_block_3_conv1D_1_conv1dx_strides_0, weight = transpose_105_to_fp16, x = transpose_206);
            tensor<int32, [4]> model_tcn_residual_block_3_conv1D_1_conv1d_perm_0 = const()[name = tensor<string, []>("model_tcn_residual_block_3_conv1D_1_conv1d_perm_0"), val = tensor<int32, [4]>([0, 2, 3, 1])];
            tensor<int32, [1]> model_tcn_residual_block_3_conv1D_1_conv1d_Squeeze_axes_0 = const()[name = tensor<string, []>("model_tcn_residual_block_3_conv1D_1_conv1d_Squeeze_axes_0"), val = tensor<int32, [1]>([-3])];
            tensor<fp16, [8, 1, 512, 64]> transpose_205 = transpose(perm = model_tcn_residual_block_3_conv1D_1_conv1d_perm_0, x = model_tcn_residual_block_3_conv1D_1_conv1dx_cast);
            tensor<fp16, [8, 512, 64]> model_tcn_residual_block_3_conv1D_1_conv1d_Squeeze_cast = squeeze(axes = model_tcn_residual_block_3_conv1D_1_conv1d_Squeeze_axes_0, x = transpose_205);
            tensor<int32, [4]> concat_27 = const()[name = tensor<string, []>("concat_27"), val = tensor<int32, [4]>([8, 1, 512, 64])];
            tensor<fp16, [8, 1, 512, 64]> reshape_16_cast = reshape(shape = concat_27, x = model_tcn_residual_block_3_conv1D_1_conv1d_Squeeze_cast);
            tensor<int32, [4]> transpose_107_perm_0 = const()[name = tensor<string, []>("transpose_107_perm_0"), val = tensor<int32, [4]>([1, 2, 0, 3])];
            tensor<int32, [3]> concat_28 = const()[name = tensor<string, []>("concat_28"), val = tensor<int32, [3]>([1, 4096, 64])];
            tensor<fp16, [1, 512, 8, 64]> transpose_204 = transpose(perm = transpose_107_perm_0, x = reshape_16_cast);
            tensor<fp16, [1, 4096, 64]> reshape_17_cast = reshape(shape = concat_28, x = transpose_204);
            tensor<fp16, [64]> model_tcn_residual_block_3_conv1D_1_BiasAdd_ReadVariableOp_to_fp16 = const()[name = tensor<string, []>("model_tcn_residual_block_3_conv1D_1_BiasAdd_ReadVariableOp_to_fp16"), val = tensor<fp16, [64]>(BLOBFILE(path = tensor<string, []>("@model_path/weights/weight.bin"), offset = tensor<uint64, []>(809600)))];
            tensor<fp16, [1, 4096, 64]> model_tcn_residual_block_3_conv1D_1_BiasAdd_cast = add(x = reshape_17_cast, y = model_tcn_residual_block_3_conv1D_1_BiasAdd_ReadVariableOp_to_fp16);
            tensor<fp16, [1, 4096, 64]> model_tcn_residual_block_3_activation_10_Relu_cast = relu(x = model_tcn_residual_block_3_conv1D_1_BiasAdd_cast);
            tensor<fp16, [1, 4096, 64]> model_tcn_add_10_add_2_cast = add(x = model_tcn_add_10_add_1_cast, y = model_tcn_residual_block_3_activation_10_Relu_cast);
            tensor<fp16, [1, 4096, 64]> model_tcn_residual_block_3_add_3_add_cast = add(x = model_tcn_residual_block_2_activation_8_Selu_cast, y = model_tcn_residual_block_3_activation_10_Relu_cast);
            tensor<fp16, []> elu_16_alpha_0_to_fp16 = const()[name = tensor<string, []>("elu_16_alpha_0_to_fp16"), val = tensor<fp16, []>(0x1.ac4p+0)];
            tensor<fp16, [1, 4096, 64]> elu_16_cast = elu(alpha = elu_16_alpha_0_to_fp16, x = model_tcn_residual_block_3_add_3_add_cast);
            tensor<fp16, []> model_tcn_residual_block_3_activation_11_Selu_y_0_to_fp16 = const()[name = tensor<string, []>("model_tcn_residual_block_3_activation_11_Selu_y_0_to_fp16"), val = tensor<fp16, []>(0x1.0dp+0)];
            tensor<fp16, [1, 4096, 64]> model_tcn_residual_block_3_activation_11_Selu_cast = mul(x = elu_16_cast, y = model_tcn_residual_block_3_activation_11_Selu_y_0_to_fp16);
            tensor<int32, [6]> pad_6_pad_0 = const()[name = tensor<string, []>("pad_6_pad_0"), val = tensor<int32, [6]>([0, 0, 48, 48, 0, 0])];
            tensor<string, []> pad_6_mode_0 = const()[name = tensor<string, []>("pad_6_mode_0"), val = tensor<string, []>("constant")];
            tensor<fp16, []> pad_6_constant_val_0_to_fp16 = const()[name = tensor<string, []>("pad_6_constant_val_0_to_fp16"), val = tensor<fp16, []>(0x0p+0)];
            tensor<fp16, [1, 4192, 64]> pad_6_cast = pad(constant_val = pad_6_constant_val_0_to_fp16, mode = pad_6_mode_0, pad = pad_6_pad_0, x = model_tcn_residual_block_3_activation_11_Selu_cast);
            tensor<int32, [4]> concat_30 = const()[name = tensor<string, []>("concat_30"), val = tensor<int32, [4]>([1, 262, 16, 64])];
            tensor<fp16, [1, 262, 16, 64]> reshape_18_cast = reshape(shape = concat_30, x = pad_6_cast);
            tensor<int32, [4]> transpose_108_perm_0 = const()[name = tensor<string, []>("transpose_108_perm_0"), val = tensor<int32, [4]>([2, 0, 1, 3])];
            tensor<int32, [3]> concat_31 = const()[name = tensor<string, []>("concat_31"), val = tensor<int32, [3]>([16, 262, 64])];
            tensor<fp16, [16, 1, 262, 64]> transpose_203 = transpose(perm = transpose_108_perm_0, x = reshape_18_cast);
            tensor<fp16, [16, 262, 64]> model_tcn_residual_block_4_conv1D_0_conv1d_SpaceToBatchND_cast = reshape(shape = concat_31, x = transpose_203);
            tensor<int32, [1]> model_tcn_residual_block_4_conv1D_0_conv1d_ExpandDims_axes_0 = const()[name = tensor<string, []>("model_tcn_residual_block_4_conv1D_0_conv1d_ExpandDims_axes_0"), val = tensor<int32, [1]>([-3])];
            tensor<fp16, [16, 1, 262, 64]> model_tcn_residual_block_4_conv1D_0_conv1d_ExpandDims_cast = expand_dims(axes = model_tcn_residual_block_4_conv1D_0_conv1d_ExpandDims_axes_0, x = model_tcn_residual_block_4_conv1D_0_conv1d_SpaceToBatchND_cast);
            tensor<int32, [4]> transpose_110_perm_0 = const()[name = tensor<string, []>("transpose_110_perm_0"), val = tensor<int32, [4]>([0, 3, 1, 2])];
            tensor<string, []> model_tcn_residual_block_4_conv1D_0_conv1dx_pad_type_0 = const()[name = tensor<string, []>("model_tcn_residual_block_4_conv1D_0_conv1dx_pad_type_0"), val = tensor<string, []>("valid")];
            tensor<int32, [2]> model_tcn_residual_block_4_conv1D_0_conv1dx_strides_0 = const()[name = tensor<string, []>("model_tcn_residual_block_4_conv1D_0_conv1dx_strides_0"), val = tensor<int32, [2]>([1, 1])];
            tensor<int32, [2]> model_tcn_residual_block_4_conv1D_0_conv1dx_dilations_0 = const()[name = tensor<string, []>("model_tcn_residual_block_4_conv1D_0_conv1dx_dilations_0"), val = tensor<int32, [2]>([1, 1])];
            tensor<int32, []> model_tcn_residual_block_4_conv1D_0_conv1dx_groups_0 = const()[name = tensor<string, []>("model_tcn_residual_block_4_conv1D_0_conv1dx_groups_0"), val = tensor<int32, []>(1)];
            tensor<int32, [4]> model_tcn_residual_block_4_conv1D_0_conv1dx_pad_0 = const()[name = tensor<string, []>("model_tcn_residual_block_4_conv1D_0_conv1dx_pad_0"), val = tensor<int32, [4]>([0, 0, 0, 0])];
            tensor<fp16, [64, 64, 1, 7]> transpose_109_to_fp16 = const()[name = tensor<string, []>("transpose_109_to_fp16"), val = tensor<fp16, [64, 64, 1, 7]>(BLOBFILE(path = tensor<string, []>("@model_path/weights/weight.bin"), offset = tensor<uint64, []>(809792)))];
            tensor<fp16, [16, 64, 1, 262]> transpose_202 = transpose(perm = transpose_110_perm_0, x = model_tcn_residual_block_4_conv1D_0_conv1d_ExpandDims_cast);
            tensor<fp16, [16, 64, 1, 256]> model_tcn_residual_block_4_conv1D_0_conv1dx_cast = conv(dilations = model_tcn_residual_block_4_conv1D_0_conv1dx_dilations_0, groups = model_tcn_residual_block_4_conv1D_0_conv1dx_groups_0, pad = model_tcn_residual_block_4_conv1D_0_conv1dx_pad_0, pad_type = model_tcn_residual_block_4_conv1D_0_conv1dx_pad_type_0, strides = model_tcn_residual_block_4_conv1D_0_conv1dx_strides_0, weight = transpose_109_to_fp16, x = transpose_202);
            tensor<int32, [4]> model_tcn_residual_block_4_conv1D_0_conv1d_perm_0 = const()[name = tensor<string, []>("model_tcn_residual_block_4_conv1D_0_conv1d_perm_0"), val = tensor<int32, [4]>([0, 2, 3, 1])];
            tensor<int32, [1]> model_tcn_residual_block_4_conv1D_0_conv1d_Squeeze_axes_0 = const()[name = tensor<string, []>("model_tcn_residual_block_4_conv1D_0_conv1d_Squeeze_axes_0"), val = tensor<int32, [1]>([-3])];
            tensor<fp16, [16, 1, 256, 64]> transpose_201 = transpose(perm = model_tcn_residual_block_4_conv1D_0_conv1d_perm_0, x = model_tcn_residual_block_4_conv1D_0_conv1dx_cast);
            tensor<fp16, [16, 256, 64]> model_tcn_residual_block_4_conv1D_0_conv1d_Squeeze_cast = squeeze(axes = model_tcn_residual_block_4_conv1D_0_conv1d_Squeeze_axes_0, x = transpose_201);
            tensor<int32, [4]> concat_32 = const()[name = tensor<string, []>("concat_32"), val = tensor<int32, [4]>([16, 1, 256, 64])];
            tensor<fp16, [16, 1, 256, 64]> reshape_19_cast = reshape(shape = concat_32, x = model_tcn_residual_block_4_conv1D_0_conv1d_Squeeze_cast);
            tensor<int32, [4]> transpose_111_perm_0 = const()[name = tensor<string, []>("transpose_111_perm_0"), val = tensor<int32, [4]>([1, 2, 0, 3])];
            tensor<int32, [3]> concat_33 = const()[name = tensor<string, []>("concat_33"), val = tensor<int32, [3]>([1, 4096, 64])];
            tensor<fp16, [1, 256, 16, 64]> transpose_200 = transpose(perm = transpose_111_perm_0, x = reshape_19_cast);
            tensor<fp16, [1, 4096, 64]> reshape_20_cast = reshape(shape = concat_33, x = transpose_200);
            tensor<fp16, [64]> model_tcn_residual_block_4_conv1D_0_BiasAdd_ReadVariableOp_to_fp16 = const()[name = tensor<string, []>("model_tcn_residual_block_4_conv1D_0_BiasAdd_ReadVariableOp_to_fp16"), val = tensor<fp16, [64]>(BLOBFILE(path = tensor<string, []>("@model_path/weights/weight.bin"), offset = tensor<uint64, []>(867200)))];
            tensor<fp16, [1, 4096, 64]> model_tcn_residual_block_4_conv1D_0_BiasAdd_cast = add(x = reshape_20_cast, y = model_tcn_residual_block_4_conv1D_0_BiasAdd_ReadVariableOp_to_fp16);
            tensor<fp16, [1, 4096, 64]> model_tcn_residual_block_4_activation_12_Relu_cast = relu(x = model_tcn_residual_block_4_conv1D_0_BiasAdd_cast);
            tensor<int32, [6]> pad_7_pad_0 = const()[name = tensor<string, []>("pad_7_pad_0"), val = tensor<int32, [6]>([0, 0, 48, 48, 0, 0])];
            tensor<string, []> pad_7_mode_0 = const()[name = tensor<string, []>("pad_7_mode_0"), val = tensor<string, []>("constant")];
            tensor<fp16, []> pad_7_constant_val_0_to_fp16 = const()[name = tensor<string, []>("pad_7_constant_val_0_to_fp16"), val = tensor<fp16, []>(0x0p+0)];
            tensor<fp16, [1, 4192, 64]> pad_7_cast = pad(constant_val = pad_7_constant_val_0_to_fp16, mode = pad_7_mode_0, pad = pad_7_pad_0, x = model_tcn_residual_block_4_activation_12_Relu_cast);
            tensor<int32, [4]> concat_35 = const()[name = tensor<string, []>("concat_35"), val = tensor<int32, [4]>([1, 262, 16, 64])];
            tensor<fp16, [1, 262, 16, 64]> reshape_21_cast = reshape(shape = concat_35, x = pad_7_cast);
            tensor<int32, [4]> transpose_112_perm_0 = const()[name = tensor<string, []>("transpose_112_perm_0"), val = tensor<int32, [4]>([2, 0, 1, 3])];
            tensor<int32, [3]> concat_36 = const()[name = tensor<string, []>("concat_36"), val = tensor<int32, [3]>([16, 262, 64])];
            tensor<fp16, [16, 1, 262, 64]> transpose_199 = transpose(perm = transpose_112_perm_0, x = reshape_21_cast);
            tensor<fp16, [16, 262, 64]> model_tcn_residual_block_4_conv1D_1_conv1d_SpaceToBatchND_cast = reshape(shape = concat_36, x = transpose_199);
            tensor<int32, [1]> model_tcn_residual_block_4_conv1D_1_conv1d_ExpandDims_axes_0 = const()[name = tensor<string, []>("model_tcn_residual_block_4_conv1D_1_conv1d_ExpandDims_axes_0"), val = tensor<int32, [1]>([-3])];
            tensor<fp16, [16, 1, 262, 64]> model_tcn_residual_block_4_conv1D_1_conv1d_ExpandDims_cast = expand_dims(axes = model_tcn_residual_block_4_conv1D_1_conv1d_ExpandDims_axes_0, x = model_tcn_residual_block_4_conv1D_1_conv1d_SpaceToBatchND_cast);
            tensor<int32, [4]> transpose_114_perm_0 = const()[name = tensor<string, []>("transpose_114_perm_0"), val = tensor<int32, [4]>([0, 3, 1, 2])];
            tensor<string, []> model_tcn_residual_block_4_conv1D_1_conv1dx_pad_type_0 = const()[name = tensor<string, []>("model_tcn_residual_block_4_conv1D_1_conv1dx_pad_type_0"), val = tensor<string, []>("valid")];
            tensor<int32, [2]> model_tcn_residual_block_4_conv1D_1_conv1dx_strides_0 = const()[name = tensor<string, []>("model_tcn_residual_block_4_conv1D_1_conv1dx_strides_0"), val = tensor<int32, [2]>([1, 1])];
            tensor<int32, [2]> model_tcn_residual_block_4_conv1D_1_conv1dx_dilations_0 = const()[name = tensor<string, []>("model_tcn_residual_block_4_conv1D_1_conv1dx_dilations_0"), val = tensor<int32, [2]>([1, 1])];
            tensor<int32, []> model_tcn_residual_block_4_conv1D_1_conv1dx_groups_0 = const()[name = tensor<string, []>("model_tcn_residual_block_4_conv1D_1_conv1dx_groups_0"), val = tensor<int32, []>(1)];
            tensor<int32, [4]> model_tcn_residual_block_4_conv1D_1_conv1dx_pad_0 = const()[name = tensor<string, []>("model_tcn_residual_block_4_conv1D_1_conv1dx_pad_0"), val = tensor<int32, [4]>([0, 0, 0, 0])];
            tensor<fp16, [64, 64, 1, 7]> transpose_113_to_fp16 = const()[name = tensor<string, []>("transpose_113_to_fp16"), val = tensor<fp16, [64, 64, 1, 7]>(BLOBFILE(path = tensor<string, []>("@model_path/weights/weight.bin"), offset = tensor<uint64, []>(867392)))];
            tensor<fp16, [16, 64, 1, 262]> transpose_198 = transpose(perm = transpose_114_perm_0, x = model_tcn_residual_block_4_conv1D_1_conv1d_ExpandDims_cast);
            tensor<fp16, [16, 64, 1, 256]> model_tcn_residual_block_4_conv1D_1_conv1dx_cast = conv(dilations = model_tcn_residual_block_4_conv1D_1_conv1dx_dilations_0, groups = model_tcn_residual_block_4_conv1D_1_conv1dx_groups_0, pad = model_tcn_residual_block_4_conv1D_1_conv1dx_pad_0, pad_type = model_tcn_residual_block_4_conv1D_1_conv1dx_pad_type_0, strides = model_tcn_residual_block_4_conv1D_1_conv1dx_strides_0, weight = transpose_113_to_fp16, x = transpose_198);
            tensor<int32, [4]> model_tcn_residual_block_4_conv1D_1_conv1d_perm_0 = const()[name = tensor<string, []>("model_tcn_residual_block_4_conv1D_1_conv1d_perm_0"), val = tensor<int32, [4]>([0, 2, 3, 1])];
            tensor<int32, [1]> model_tcn_residual_block_4_conv1D_1_conv1d_Squeeze_axes_0 = const()[name = tensor<string, []>("model_tcn_residual_block_4_conv1D_1_conv1d_Squeeze_axes_0"), val = tensor<int32, [1]>([-3])];
            tensor<fp16, [16, 1, 256, 64]> transpose_197 = transpose(perm = model_tcn_residual_block_4_conv1D_1_conv1d_perm_0, x = model_tcn_residual_block_4_conv1D_1_conv1dx_cast);
            tensor<fp16, [16, 256, 64]> model_tcn_residual_block_4_conv1D_1_conv1d_Squeeze_cast = squeeze(axes = model_tcn_residual_block_4_conv1D_1_conv1d_Squeeze_axes_0, x = transpose_197);
            tensor<int32, [4]> concat_37 = const()[name = tensor<string, []>("concat_37"), val = tensor<int32, [4]>([16, 1, 256, 64])];
            tensor<fp16, [16, 1, 256, 64]> reshape_22_cast = reshape(shape = concat_37, x = model_tcn_residual_block_4_conv1D_1_conv1d_Squeeze_cast);
            tensor<int32, [4]> transpose_115_perm_0 = const()[name = tensor<string, []>("transpose_115_perm_0"), val = tensor<int32, [4]>([1, 2, 0, 3])];
            tensor<int32, [3]> concat_38 = const()[name = tensor<string, []>("concat_38"), val = tensor<int32, [3]>([1, 4096, 64])];
            tensor<fp16, [1, 256, 16, 64]> transpose_196 = transpose(perm = transpose_115_perm_0, x = reshape_22_cast);
            tensor<fp16, [1, 4096, 64]> reshape_23_cast = reshape(shape = concat_38, x = transpose_196);
            tensor<fp16, [64]> model_tcn_residual_block_4_conv1D_1_BiasAdd_ReadVariableOp_to_fp16 = const()[name = tensor<string, []>("model_tcn_residual_block_4_conv1D_1_BiasAdd_ReadVariableOp_to_fp16"), val = tensor<fp16, [64]>(BLOBFILE(path = tensor<string, []>("@model_path/weights/weight.bin"), offset = tensor<uint64, []>(924800)))];
            tensor<fp16, [1, 4096, 64]> model_tcn_residual_block_4_conv1D_1_BiasAdd_cast = add(x = reshape_23_cast, y = model_tcn_residual_block_4_conv1D_1_BiasAdd_ReadVariableOp_to_fp16);
            tensor<fp16, [1, 4096, 64]> model_tcn_residual_block_4_activation_13_Relu_cast = relu(x = model_tcn_residual_block_4_conv1D_1_BiasAdd_cast);
            tensor<fp16, [1, 4096, 64]> model_tcn_add_10_add_3_cast = add(x = model_tcn_add_10_add_2_cast, y = model_tcn_residual_block_4_activation_13_Relu_cast);
            tensor<fp16, [1, 4096, 64]> model_tcn_residual_block_4_add_4_add_cast = add(x = model_tcn_residual_block_3_activation_11_Selu_cast, y = model_tcn_residual_block_4_activation_13_Relu_cast);
            tensor<fp16, []> elu_17_alpha_0_to_fp16 = const()[name = tensor<string, []>("elu_17_alpha_0_to_fp16"), val = tensor<fp16, []>(0x1.ac4p+0)];
            tensor<fp16, [1, 4096, 64]> elu_17_cast = elu(alpha = elu_17_alpha_0_to_fp16, x = model_tcn_residual_block_4_add_4_add_cast);
            tensor<fp16, []> model_tcn_residual_block_4_activation_14_Selu_y_0_to_fp16 = const()[name = tensor<string, []>("model_tcn_residual_block_4_activation_14_Selu_y_0_to_fp16"), val = tensor<fp16, []>(0x1.0dp+0)];
            tensor<fp16, [1, 4096, 64]> model_tcn_residual_block_4_activation_14_Selu_cast = mul(x = elu_17_cast, y = model_tcn_residual_block_4_activation_14_Selu_y_0_to_fp16);
            tensor<int32, [6]> pad_8_pad_0 = const()[name = tensor<string, []>("pad_8_pad_0"), val = tensor<int32, [6]>([0, 0, 96, 96, 0, 0])];
            tensor<string, []> pad_8_mode_0 = const()[name = tensor<string, []>("pad_8_mode_0"), val = tensor<string, []>("constant")];
            tensor<fp16, []> pad_8_constant_val_0_to_fp16 = const()[name = tensor<string, []>("pad_8_constant_val_0_to_fp16"), val = tensor<fp16, []>(0x0p+0)];
            tensor<fp16, [1, 4288, 64]> pad_8_cast = pad(constant_val = pad_8_constant_val_0_to_fp16, mode = pad_8_mode_0, pad = pad_8_pad_0, x = model_tcn_residual_block_4_activation_14_Selu_cast);
            tensor<int32, [4]> concat_40 = const()[name = tensor<string, []>("concat_40"), val = tensor<int32, [4]>([1, 134, 32, 64])];
            tensor<fp16, [1, 134, 32, 64]> reshape_24_cast = reshape(shape = concat_40, x = pad_8_cast);
            tensor<int32, [4]> transpose_116_perm_0 = const()[name = tensor<string, []>("transpose_116_perm_0"), val = tensor<int32, [4]>([2, 0, 1, 3])];
            tensor<int32, [3]> concat_41 = const()[name = tensor<string, []>("concat_41"), val = tensor<int32, [3]>([32, 134, 64])];
            tensor<fp16, [32, 1, 134, 64]> transpose_195 = transpose(perm = transpose_116_perm_0, x = reshape_24_cast);
            tensor<fp16, [32, 134, 64]> model_tcn_residual_block_5_conv1D_0_conv1d_SpaceToBatchND_cast = reshape(shape = concat_41, x = transpose_195);
            tensor<int32, [1]> model_tcn_residual_block_5_conv1D_0_conv1d_ExpandDims_axes_0 = const()[name = tensor<string, []>("model_tcn_residual_block_5_conv1D_0_conv1d_ExpandDims_axes_0"), val = tensor<int32, [1]>([-3])];
…
            tensor<int32, [1]> model_tcn_residual_block_8_conv1D_0_conv1d_ExpandDims_axes_0 = const()[name = tensor<string, []>("model_tcn_residual_block_8_conv1D_0_conv1d_ExpandDims_axes_0"), val = tensor<int32, [1]>([-3])];
            tensor<fp16, [256, 1, 22, 64]> model_tcn_residual_block_8_conv1D_0_conv1d_ExpandDims_cast = expand_dims(axes = model_tcn_residual_block_8_conv1D_0_conv1d_ExpandDims_axes_0, x = model_tcn_residual_block_8_conv1D_0_conv1d_SpaceToBatchND_cast);
            tensor<int32, [4]> transpose_142_perm_0 = const()[name = tensor<string, []>("transpose_142_perm_0"), val = tensor<int32, [4]>([0, 3, 1, 2])];
            tensor<string, []> model_tcn_residual_block_8_conv1D_0_conv1dx_pad_type_0 = const()[name = tensor<string, []>("model_tcn_residual_block_8_conv1D_0_conv1dx_pad_type_0"), val = tensor<string, []>("valid")];
            tensor<int32, [2]> model_tcn_residual_block_8_conv1D_0_conv1dx_strides_0 = const()[name = tensor<string, []>("model_tcn_residual_block_8_conv1D_0_conv1dx_strides_0"), val = tensor<int32, [2]>([1, 1])];
            tensor<int32, [2]> model_tcn_residual_block_8_conv1D_0_conv1dx_dilations_0 = const()[name = tensor<string, []>("model_tcn_residual_block_8_conv1D_0_conv1dx_dilations_0"), val = tensor<int32, [2]>([1, 1])];
            tensor<int32, []> model_tcn_residual_block_8_conv1D_0_conv1dx_groups_0 = const()[name = tensor<string, []>("model_tcn_residual_block_8_conv1D_0_conv1dx_groups_0"), val = tensor<int32, []>(1)];
            tensor<int32, [4]> model_tcn_residual_block_8_conv1D_0_conv1dx_pad_0 = const()[name = tensor<string, []>("model_tcn_residual_block_8_conv1D_0_conv1dx_pad_0"), val = tensor<int32, [4]>([0, 0, 0, 0])];
            tensor<fp16, [64, 64, 1, 7]> transpose_141_to_fp16 = const()[name = tensor<string, []>("transpose_141_to_fp16"), val = tensor<fp16, [64, 64, 1, 7]>(BLOBFILE(path = tensor<string, []>("@model_path/weights/weight.bin"), offset = tensor<uint64, []>(1270592)))];
            tensor<fp16, [256, 64, 1, 22]> transpose_170 = transpose(perm = transpose_142_perm_0, x = model_tcn_residual_block_8_conv1D_0_conv1d_ExpandDims_cast);
            tensor<fp16, [256, 64, 1, 16]> model_tcn_residual_block_8_conv1D_0_conv1dx_cast = conv(dilations = model_tcn_residual_block_8_conv1D_0_conv1dx_dilations_0, groups = model_tcn_residual_block_8_conv1D_0_conv1dx_groups_0, pad = model_tcn_residual_block_8_conv1D_0_conv1dx_pad_0, pad_type = model_tcn_residual_block_8_conv1D_0_conv1dx_pad_type_0, strides = model_tcn_residual_block_8_conv1D_0_conv1dx_strides_0, weight = transpose_141_to_fp16, x = transpose_170);
            tensor<int32, [4]> model_tcn_residual_block_8_conv1D_0_conv1d_perm_0 = const()[name = tensor<string, []>("model_tcn_residual_block_8_conv1D_0_conv1d_perm_0"), val = tensor<int32, [4]>([0, 2, 3, 1])];
            tensor<int32, [1]> model_tcn_residual_block_8_conv1D_0_conv1d_Squeeze_axes_0 = const()[name = tensor<string, []>("model_tcn_residual_block_8_conv1D_0_conv1d_Squeeze_axes_0"), val = tensor<int32, [1]>([-3])];
            tensor<fp16, [256, 1, 16, 64]> transpose_169 = transpose(perm = model_tcn_residual_block_8_conv1D_0_conv1d_perm_0, x = model_tcn_residual_block_8_conv1D_0_conv1dx_cast);
            tensor<fp16, [256, 16, 64]> model_tcn_residual_block_8_conv1D_0_conv1d_Squeeze_cast = squeeze(axes = model_tcn_residual_block_8_conv1D_0_conv1d_Squeeze_axes_0, x = transpose_169);
            tensor<int32, [4]> concat_72 = const()[name = tensor<string, []>("concat_72"), val = tensor<int32, [4]>([256, 1, 16, 64])];
            tensor<fp16, [256, 1, 16, 64]> reshape_43_cast = reshape(shape = concat_72, x = model_tcn_residual_block_8_conv1D_0_conv1d_Squeeze_cast);
            tensor<int32, [4]> transpose_143_perm_0 = const()[name = tensor<string, []>("transpose_143_perm_0"), val = tensor<int32, [4]>([1, 2, 0, 3])];
            tensor<int32, [3]> concat_73 = const()[name = tensor<string, []>("concat_73"), val = tensor<int32, [3]>([1, 4096, 64])];
            tensor<fp16, [1, 16, 256, 64]> transpose_168 = transpose(perm = transpose_143_perm_0, x = reshape_43_cast);
            tensor<fp16, [1, 4096, 64]> reshape_44_cast = reshape(shape = concat_73, x = transpose_168);
            tensor<fp16, [64]> model_tcn_residual_block_8_conv1D_0_BiasAdd_ReadVariableOp_to_fp16 = const()[name = tensor<string, []>("model_tcn_residual_block_8_conv1D_0_BiasAdd_ReadVariableOp_to_fp16"), val = tensor<fp16, [64]>(BLOBFILE(path = tensor<string, []>("@model_path/weights/weight.bin"), offset = tensor<uint64, []>(1328000)))];
            tensor<fp16, [1, 4096, 64]> model_tcn_residual_block_8_conv1D_0_BiasAdd_cast = add(x = reshape_44_cast, y = model_tcn_residual_block_8_conv1D_0_BiasAdd_ReadVariableOp_to_fp16);
            tensor<fp16, [1, 4096, 64]> model_tcn_residual_block_8_activation_24_Relu_cast = relu(x = model_tcn_residual_block_8_conv1D_0_BiasAdd_cast);
            tensor<int32, [6]> pad_15_pad_0 = const()[name = tensor<string, []>("pad_15_pad_0"), val = tensor<int32, [6]>([0, 0, 768, 768, 0, 0])];
            tensor<string, []> pad_15_mode_0 = const()[name = tensor<string, []>("pad_15_mode_0"), val = tensor<string, []>("constant")];
            tensor<fp16, []> pad_15_constant_val_0_to_fp16 = const()[name = tensor<string, []>("pad_15_constant_val_0_to_fp16"), val = tensor<fp16, []>(0x0p+0)];
            tensor<fp16, [1, 5632, 64]> pad_15_cast = pad(constant_val = pad_15_constant_val_0_to_fp16, mode = pad_15_mode_0, pad = pad_15_pad_0, x = model_tcn_residual_block_8_activation_24_Relu_cast);
            tensor<int32, [4]> concat_75 = const()[name = tensor<string, []>("concat_75"), val = tensor<int32, [4]>([1, 22, 256, 64])];
            tensor<fp16, [1, 22, 256, 64]> reshape_45_cast = reshape(shape = concat_75, x = pad_15_cast);
            tensor<int32, [4]> transpose_144_perm_0 = const()[name = tensor<string, []>("transpose_144_perm_0"), val = tensor<int32, [4]>([2, 0, 1, 3])];
            tensor<int32, [3]> concat_76 = const()[name = tensor<string, []>("concat_76"), val = tensor<int32, [3]>([256, 22, 64])];
            tensor<fp16, [256, 1, 22, 64]> transpose_167 = transpose(perm = transpose_144_perm_0, x = reshape_45_cast);
            tensor<fp16, [256, 22, 64]> model_tcn_residual_block_8_conv1D_1_conv1d_SpaceToBatchND_cast = reshape(shape = concat_76, x = transpose_167);
            tensor<int32, [1]> model_tcn_residual_block_8_conv1D_1_conv1d_ExpandDims_axes_0 = const()[name = tensor<string, []>("model_tcn_residual_block_8_conv1D_1_conv1d_ExpandDims_axes_0"), val = tensor<int32, [1]>([-3])];
            tensor<fp16, [256, 1, 22, 64]> model_tcn_residual_block_8_conv1D_1_conv1d_ExpandDims_cast = expand_dims(axes = model_tcn_residual_block_8_conv1D_1_conv1d_ExpandDims_axes_0, x = model_tcn_residual_block_8_conv1D_1_conv1d_SpaceToBatchND_cast);
            tensor<int32, [4]> transpose_146_perm_0 = const()[name = tensor<string, []>("transpose_146_perm_0"), val = tensor<int32, [4]>([0, 3, 1, 2])];
            tensor<string, []> model_tcn_residual_block_8_conv1D_1_conv1dx_pad_type_0 = const()[name = tensor<string, []>("model_tcn_residual_block_8_conv1D_1_conv1dx_pad_type_0"), val = tensor<string, []>("valid")];
            tensor<int32, [2]> model_tcn_residual_block_8_conv1D_1_conv1dx_strides_0 = const()[name = tensor<string, []>("model_tcn_residual_block_8_conv1D_1_conv1dx_strides_0"), val = tensor<int32, [2]>([1, 1])];
            tensor<int32, [2]> model_tcn_residual_block_8_conv1D_1_conv1dx_dilations_0 = const()[name = tensor<string, []>("model_tcn_residual_block_8_conv1D_1_conv1dx_dilations_0"), val = tensor<int32, [2]>([1, 1])];
            tensor<int32, []> model_tcn_residual_block_8_conv1D_1_conv1dx_groups_0 = const()[name = tensor<string, []>("model_tcn_residual_block_8_conv1D_1_conv1dx_groups_0"), val = tensor<int32, []>(1)];
            tensor<int32, [4]> model_tcn_residual_block_8_conv1D_1_conv1dx_pad_0 = const()[name = tensor<string, []>("model_tcn_residual_block_8_conv1D_1_conv1dx_pad_0"), val = tensor<int32, [4]>([0, 0, 0, 0])];
            tensor<fp16, [64, 64, 1, 7]> transpose_145_to_fp16 = const()[name = tensor<string, []>("transpose_145_to_fp16"), val = tensor<fp16, [64, 64, 1, 7]>(BLOBFILE(path = tensor<string, []>("@model_path/weights/weight.bin"), offset = tensor<uint64, []>(1328192)))];
            tensor<fp16, [256, 64, 1, 22]> transpose_166 = transpose(perm = transpose_146_perm_0, x = model_tcn_residual_block_8_conv1D_1_conv1d_ExpandDims_cast);
            tensor<fp16, [256, 64, 1, 16]> model_tcn_residual_block_8_conv1D_1_conv1dx_cast = conv(dilations = model_tcn_residual_block_8_conv1D_1_conv1dx_dilations_0, groups = model_tcn_residual_block_8_conv1D_1_conv1dx_groups_0, pad = model_tcn_residual_block_8_conv1D_1_conv1dx_pad_0, pad_type = model_tcn_residual_block_8_conv1D_1_conv1dx_pad_type_0, strides = model_tcn_residual_block_8_conv1D_1_conv1dx_strides_0, weight = transpose_145_to_fp16, x = transpose_166);
            tensor<int32, [4]> model_tcn_residual_block_8_conv1D_1_conv1d_perm_0 = const()[name = tensor<string, []>("model_tcn_residual_block_8_conv1D_1_conv1d_perm_0"), val = tensor<int32, [4]>([0, 2, 3, 1])];
            tensor<int32, [1]> model_tcn_residual_block_8_conv1D_1_conv1d_Squeeze_axes_0 = const()[name = tensor<string, []>("model_tcn_residual_block_8_conv1D_1_conv1d_Squeeze_axes_0"), val = tensor<int32, [1]>([-3])];
            tensor<fp16, [256, 1, 16, 64]> transpose_165 = transpose(perm = model_tcn_residual_block_8_conv1D_1_conv1d_perm_0, x = model_tcn_residual_block_8_conv1D_1_conv1dx_cast);
            tensor<fp16, [256, 16, 64]> model_tcn_residual_block_8_conv1D_1_conv1d_Squeeze_cast = squeeze(axes = model_tcn_residual_block_8_conv1D_1_conv1d_Squeeze_axes_0, x = transpose_165);
            tensor<int32, [4]> concat_77 = const()[name = tensor<string, []>("concat_77"), val = tensor<int32, [4]>([256, 1, 16, 64])];
            tensor<fp16, [256, 1, 16, 64]> reshape_46_cast = reshape(shape = concat_77, x = model_tcn_residual_block_8_conv1D_1_conv1d_Squeeze_cast);
            tensor<int32, [4]> transpose_147_perm_0 = const()[name = tensor<string, []>("transpose_147_perm_0"), val = tensor<int32, [4]>([1, 2, 0, 3])];
            tensor<int32, [3]> concat_78 = const()[name = tensor<string, []>("concat_78"), val = tensor<int32, [3]>([1, 4096, 64])];
            tensor<fp16, [1, 16, 256, 64]> transpose_164 = transpose(perm = transpose_147_perm_0, x = reshape_46_cast);
            tensor<fp16, [1, 4096, 64]> reshape_47_cast = reshape(shape = concat_78, x = transpose_164);
            tensor<fp16, [64]> model_tcn_residual_block_8_conv1D_1_BiasAdd_ReadVariableOp_to_fp16 = const()[name = tensor<string, []>("model_tcn_residual_block_8_conv1D_1_BiasAdd_ReadVariableOp_to_fp16"), val = tensor<fp16, [64]>(BLOBFILE(path = tensor<string, []>("@model_path/weights/weight.bin"), offset = tensor<uint64, []>(1385600)))];
            tensor<fp16, [1, 4096, 64]> model_tcn_residual_block_8_conv1D_1_BiasAdd_cast = add(x = reshape_47_cast, y = model_tcn_residual_block_8_conv1D_1_BiasAdd_ReadVariableOp_to_fp16);
            tensor<fp16, [1, 4096, 64]> model_tcn_residual_block_8_activation_25_Relu_cast = relu(x = model_tcn_residual_block_8_conv1D_1_BiasAdd_cast);
            tensor<fp16, [1, 4096, 64]> model_tcn_add_10_add_7_cast = add(x = model_tcn_add_10_add_6_cast, y = model_tcn_residual_block_8_activation_25_Relu_cast);
            tensor<fp16, [1, 4096, 64]> model_tcn_residual_block_8_add_8_add_cast = add(x = model_tcn_residual_block_7_activation_23_Selu_cast, y = model_tcn_residual_block_8_activation_25_Relu_cast);
            tensor<fp16, []> elu_21_alpha_0_to_fp16 = const()[name = tensor<string, []>("elu_21_alpha_0_to_fp16"), val = tensor<fp16, []>(0x1.ac4p+0)];
            tensor<fp16, [1, 4096, 64]> elu_21_cast = elu(alpha = elu_21_alpha_0_to_fp16, x = model_tcn_residual_block_8_add_8_add_cast);
            tensor<fp16, []> model_tcn_residual_block_8_activation_26_Selu_y_0_to_fp16 = const()[name = tensor<string, []>("model_tcn_residual_block_8_activation_26_Selu_y_0_to_fp16"), val = tensor<fp16, []>(0x1.0dp+0)];
            tensor<fp16, [1, 4096, 64]> model_tcn_residual_block_8_activation_26_Selu_cast = mul(x = elu_21_cast, y = model_tcn_residual_block_8_activation_26_Selu_y_0_to_fp16);
            tensor<int32, [6]> pad_16_pad_0 = const()[name = tensor<string, []>("pad_16_pad_0"), val = tensor<int32, [6]>([0, 0, 1536, 1536, 0, 0])];
            tensor<string, []> pad_16_mode_0 = const()[name = tensor<string, []>("pad_16_mode_0"), val = tensor<string, []>("constant")];
            tensor<fp16, []> pad_16_constant_val_0_to_fp16 = const()[name = tensor<string, []>("pad_16_constant_val_0_to_fp16"), val = tensor<fp16, []>(0x0p+0)];
            tensor<fp16, [1, 7168, 64]> pad_16_cast = pad(constant_val = pad_16_constant_val_0_to_fp16, mode = pad_16_mode_0, pad = pad_16_pad_0, x = model_tcn_residual_block_8_activation_26_Selu_cast);
            tensor<int32, [4]> concat_80 = const()[name = tensor<string, []>("concat_80"), val = tensor<int32, [4]>([1, 14, 512, 64])];
            tensor<fp16, [1, 14, 512, 64]> reshape_48_cast = reshape(shape = concat_80, x = pad_16_cast);
            tensor<int32, [4]> transpose_148_perm_0 = const()[name = tensor<string, []>("transpose_148_perm_0"), val = tensor<int32, [4]>([2, 0, 1, 3])];
            tensor<int32, [3]> concat_81 = const()[name = tensor<string, []>("concat_81"), val = tensor<int32, [3]>([512, 14, 64])];
            tensor<fp16, [512, 1, 14, 64]> transpose_163 = transpose(perm = transpose_148_perm_0, x = reshape_48_cast);
            tensor<fp16, [512, 14, 64]> model_tcn_residual_block_9_conv1D_0_conv1d_SpaceToBatchND_cast = reshape(shape = concat_81, x = transpose_163);
            tensor<int32, [1]> model_tcn_residual_block_9_conv1D_0_conv1d_ExpandDims_axes_0 = const()[name = tensor<string, []>("model_tcn_residual_block_9_conv1D_0_conv1d_ExpandDims_axes_0"), val = tensor<int32, [1]>([-3])];
            tensor<fp16, [512, 1, 14, 64]> model_tcn_residual_block_9_conv1D_0_conv1d_ExpandDims_cast = expand_dims(axes = model_tcn_residual_block_9_conv1D_0_conv1d_ExpandDims_axes_0, x = model_tcn_residual_block_9_conv1D_0_conv1d_SpaceToBatchND_cast);
            tensor<int32, [4]> transpose_150_perm_0 = const()[name = tensor<string, []>("transpose_150_perm_0"), val = tensor<int32, [4]>([0, 3, 1, 2])];
            tensor<string, []> model_tcn_residual_block_9_conv1D_0_conv1dx_pad_type_0 = const()[name = tensor<string, []>("model_tcn_residual_block_9_conv1D_0_conv1dx_pad_type_0"), val = tensor<string, []>("valid")];
            tensor<int32, [2]> model_tcn_residual_block_9_conv1D_0_conv1dx_strides_0 = const()[name = tensor<string, []>("model_tcn_residual_block_9_conv1D_0_conv1dx_strides_0"), val = tensor<int32, [2]>([1, 1])];
            tensor<int32, [2]> model_tcn_residual_block_9_conv1D_0_conv1dx_dilations_0 = const()[name = tensor<string, []>("model_tcn_residual_block_9_conv1D_0_conv1dx_dilations_0"), val = tensor<int32, [2]>([1, 1])];
            tensor<int32, []> model_tcn_residual_block_9_conv1D_0_conv1dx_groups_0 = const()[name = tensor<string, []>("model_tcn_residual_block_9_conv1D_0_conv1dx_groups_0"), val = tensor<int32, []>(1)];
            tensor<int32, [4]> model_tcn_residual_block_9_conv1D_0_conv1dx_pad_0 = const()[name = tensor<string, []>("model_tcn_residual_block_9_conv1D_0_conv1dx_pad_0"), val = tensor<int32, [4]>([0, 0, 0, 0])];
            tensor<fp16, [64, 64, 1, 7]> transpose_149_to_fp16 = const()[name = tensor<string, []>("transpose_149_to_fp16"), val = tensor<fp16, [64, 64, 1, 7]>(BLOBFILE(path = tensor<string, []>("@model_path/weights/weight.bin"), offset = tensor<uint64, []>(1385792)))];
            tensor<fp16, [512, 64, 1, 14]> transpose_162 = transpose(perm = transpose_150_perm_0, x = model_tcn_residual_block_9_conv1D_0_conv1d_ExpandDims_cast);
            tensor<fp16, [512, 64, 1, 8]> model_tcn_residual_block_9_conv1D_0_conv1dx_cast = conv(dilations = model_tcn_residual_block_9_conv1D_0_conv1dx_dilations_0, groups = model_tcn_residual_block_9_conv1D_0_conv1dx_groups_0, pad = model_tcn_residual_block_9_conv1D_0_conv1dx_pad_0, pad_type = model_tcn_residual_block_9_conv1D_0_conv1dx_pad_type_0, strides = model_tcn_residual_block_9_conv1D_0_conv1dx_strides_0, weight = transpose_149_to_fp16, x = transpose_162);
            tensor<int32, [4]> model_tcn_residual_block_9_conv1D_0_conv1d_perm_0 = const()[name = tensor<string, []>("model_tcn_residual_block_9_conv1D_0_conv1d_perm_0"), val = tensor<int32, [4]>([0, 2, 3, 1])];
            tensor<int32, [1]> model_tcn_residual_block_9_conv1D_0_conv1d_Squeeze_axes_0 = const()[name = tensor<string, []>("model_tcn_residual_block_9_conv1D_0_conv1d_Squeeze_axes_0"), val = tensor<int32, [1]>([-3])];
            tensor<fp16, [512, 1, 8, 64]> transpose_161 = transpose(perm = model_tcn_residual_block_9_conv1D_0_conv1d_perm_0, x = model_tcn_residual_block_9_conv1D_0_conv1dx_cast);
            tensor<fp16, [512, 8, 64]> model_tcn_residual_block_9_conv1D_0_conv1d_Squeeze_cast = squeeze(axes = model_tcn_residual_block_9_conv1D_0_conv1d_Squeeze_axes_0, x = transpose_161);
            tensor<int32, [4]> concat_82 = const()[name = tensor<string, []>("concat_82"), val = tensor<int32, [4]>([512, 1, 8, 64])];
            tensor<fp16, [512, 1, 8, 64]> reshape_49_cast = reshape(shape = concat_82, x = model_tcn_residual_block_9_conv1D_0_conv1d_Squeeze_cast);
            tensor<int32, [4]> transpose_151_perm_0 = const()[name = tensor<string, []>("transpose_151_perm_0"), val = tensor<int32, [4]>([1, 2, 0, 3])];
            tensor<int32, [3]> concat_83 = const()[name = tensor<string, []>("concat_83"), val = tensor<int32, [3]>([1, 4096, 64])];
            tensor<fp16, [1, 8, 512, 64]> transpose_160 = transpose(perm = transpose_151_perm_0, x = reshape_49_cast);
            tensor<fp16, [1, 4096, 64]> reshape_50_cast = reshape(shape = concat_83, x = transpose_160);
            tensor<fp16, [64]> model_tcn_residual_block_9_conv1D_0_BiasAdd_ReadVariableOp_to_fp16 = const()[name = tensor<string, []>("model_tcn_residual_block_9_conv1D_0_BiasAdd_ReadVariableOp_to_fp16"), val = tensor<fp16, [64]>(BLOBFILE(path = tensor<string, []>("@model_path/weights/weight.bin"), offset = tensor<uint64, []>(1443200)))];
            tensor<fp16, [1, 4096, 64]> model_tcn_residual_block_9_conv1D_0_BiasAdd_cast = add(x = reshape_50_cast, y = model_tcn_residual_block_9_conv1D_0_BiasAdd_ReadVariableOp_to_fp16);
            tensor<fp16, [1, 4096, 64]> model_tcn_residual_block_9_activation_27_Relu_cast = relu(x = model_tcn_residual_block_9_conv1D_0_BiasAdd_cast);
            tensor<int32, [6]> pad_17_pad_0 = const()[name = tensor<string, []>("pad_17_pad_0"), val = tensor<int32, [6]>([0, 0, 1536, 1536, 0, 0])];
            tensor<string, []> pad_17_mode_0 = const()[name = tensor<string, []>("pad_17_mode_0"), val = tensor<string, []>("constant")];
            tensor<fp16, []> pad_17_constant_val_0_to_fp16 = const()[name = tensor<string, []>("pad_17_constant_val_0_to_fp16"), val = tensor<fp16, []>(0x0p+0)];
            tensor<fp16, [1, 7168, 64]> pad_17_cast = pad(constant_val = pad_17_constant_val_0_to_fp16, mode = pad_17_mode_0, pad = pad_17_pad_0, x = model_tcn_residual_block_9_activation_27_Relu_cast);
            tensor<int32, [4]> concat_85 = const()[name = tensor<string, []>("concat_85"), val = tensor<int32, [4]>([1, 14, 512, 64])];
            tensor<fp16, [1, 14, 512, 64]> reshape_51_cast = reshape(shape = concat_85, x = pad_17_cast);
            tensor<int32, [4]> transpose_152_perm_0 = const()[name = tensor<string, []>("transpose_152_perm_0"), val = tensor<int32, [4]>([2, 0, 1, 3])];
            tensor<int32, [3]> concat_86 = const()[name = tensor<string, []>("concat_86"), val = tensor<int32, [3]>([512, 14, 64])];
            tensor<fp16, [512, 1, 14, 64]> transpose_159 = transpose(perm = transpose_152_perm_0, x = reshape_51_cast);
            tensor<fp16, [512, 14, 64]> model_tcn_residual_block_9_conv1D_1_conv1d_SpaceToBatchND_cast = reshape(shape = concat_86, x = transpose_159);
            tensor<int32, [1]> model_tcn_residual_block_9_conv1D_1_conv1d_ExpandDims_axes_0 = const()[name = tensor<string, []>("model_tcn_residual_block_9_conv1D_1_conv1d_ExpandDims_axes_0"), val = tensor<int32, [1]>([-3])];
            tensor<fp16, [512, 1, 14, 64]> model_tcn_residual_block_9_conv1D_1_conv1d_ExpandDims_cast = expand_dims(axes = model_tcn_residual_block_9_conv1D_1_conv1d_ExpandDims_axes_0, x = model_tcn_residual_block_9_conv1D_1_conv1d_SpaceToBatchND_cast);
            tensor<int32, [4]> transpose_154_perm_0 = const()[name = tensor<string, []>("transpose_154_perm_0"), val = tensor<int32, [4]>([0, 3, 1, 2])];
            tensor<string, []> model_tcn_residual_block_9_conv1D_1_conv1dx_pad_type_0 = const()[name = tensor<string, []>("model_tcn_residual_block_9_conv1D_1_conv1dx_pad_type_0"), val = tensor<string, []>("valid")];
            tensor<int32, [2]> model_tcn_residual_block_9_conv1D_1_conv1dx_strides_0 = const()[name = tensor<string, []>("model_tcn_residual_block_9_conv1D_1_conv1dx_strides_0"), val = tensor<int32, [2]>([1, 1])];
            tensor<int32, [2]> model_tcn_residual_block_9_conv1D_1_conv1dx_dilations_0 = const()[name = tensor<string, []>("model_tcn_residual_block_9_conv1D_1_conv1dx_dilations_0"), val = tensor<int32, [2]>([1, 1])];
            tensor<int32, []> model_tcn_residual_block_9_conv1D_1_conv1dx_groups_0 = const()[name = tensor<string, []>("model_tcn_residual_block_9_conv1D_1_conv1dx_groups_0"), val = tensor<int32, []>(1)];
            tensor<int32, [4]> model_tcn_residual_block_9_conv1D_1_conv1dx_pad_0 = const()[name = tensor<string, []>("model_tcn_residual_block_9_conv1D_1_conv1dx_pad_0"), val = tensor<int32, [4]>([0, 0, 0, 0])];
            tensor<fp16, [64, 64, 1, 7]> transpose_153_to_fp16 = const()[name = tensor<string, []>("transpose_153_to_fp16"), val = tensor<fp16, [64, 64, 1, 7]>(BLOBFILE(path = tensor<string, []>("@model_path/weights/weight.bin"), offset = tensor<uint64, []>(1443392)))];
            tensor<fp16, [512, 64, 1, 14]> transpose_158 = transpose(perm = transpose_154_perm_0, x = model_tcn_residual_block_9_conv1D_1_conv1d_ExpandDims_cast);
            tensor<fp16, [512, 64, 1, 8]> model_tcn_residual_block_9_conv1D_1_conv1dx_cast = conv(dilations = model_tcn_residual_block_9_conv1D_1_conv1dx_dilations_0, groups = model_tcn_residual_block_9_conv1D_1_conv1dx_groups_0, pad = model_tcn_residual_block_9_conv1D_1_conv1dx_pad_0, pad_type = model_tcn_residual_block_9_conv1D_1_conv1dx_pad_type_0, strides = model_tcn_residual_block_9_conv1D_1_conv1dx_strides_0, weight = transpose_153_to_fp16, x = transpose_158);
            tensor<int32, [4]> model_tcn_residual_block_9_conv1D_1_conv1d_perm_0 = const()[name = tensor<string, []>("model_tcn_residual_block_9_conv1D_1_conv1d_perm_0"), val = tensor<int32, [4]>([0, 2, 3, 1])];
            tensor<int32, [1]> model_tcn_residual_block_9_conv1D_1_conv1d_Squeeze_axes_0 = const()[name = tensor<string, []>("model_tcn_residual_block_9_conv1D_1_conv1d_Squeeze_axes_0"), val = tensor<int32, [1]>([-3])];
            tensor<fp16, [512, 1, 8, 64]> transpose_157 = transpose(perm = model_tcn_residual_block_9_conv1D_1_conv1d_perm_0, x = model_tcn_residual_block_9_conv1D_1_conv1dx_cast);
            tensor<fp16, [512, 8, 64]> model_tcn_residual_block_9_conv1D_1_conv1d_Squeeze_cast = squeeze(axes = model_tcn_residual_block_9_conv1D_1_conv1d_Squeeze_axes_0, x = transpose_157);
            tensor<int32, [4]> concat_87 = const()[name = tensor<string, []>("concat_87"), val = tensor<int32, [4]>([512, 1, 8, 64])];
            tensor<fp16, [512, 1, 8, 64]> reshape_52_cast = reshape(shape = concat_87, x = model_tcn_residual_block_9_conv1D_1_conv1d_Squeeze_cast);
            tensor<int32, [4]> transpose_155_perm_0 = const()[name = tensor<string, []>("transpose_155_perm_0"), val = tensor<int32, [4]>([1, 2, 0, 3])];
            tensor<int32, [3]> concat_88 = const()[name = tensor<string, []>("concat_88"), val = tensor<int32, [3]>([1, 4096, 64])];
            tensor<fp16, [1, 8, 512, 64]> transpose_156 = transpose(perm = transpose_155_perm_0, x = reshape_52_cast);
            tensor<fp16, [1, 4096, 64]> reshape_53_cast = reshape(shape = concat_88, x = transpose_156);
            tensor<fp16, [64]> model_tcn_residual_block_9_conv1D_1_BiasAdd_ReadVariableOp_to_fp16 = const()[name = tensor<string, []>("model_tcn_residual_block_9_conv1D_1_BiasAdd_ReadVariableOp_to_fp16"), val = tensor<fp16, [64]>(BLOBFILE(path = tensor<string, []>("@model_path/weights/weight.bin"), offset = tensor<uint64, []>(1500800)))];
            tensor<fp16, [1, 4096, 64]> model_tcn_residual_block_9_conv1D_1_BiasAdd_cast = add(x = reshape_53_cast, y = model_tcn_residual_block_9_conv1D_1_BiasAdd_ReadVariableOp_to_fp16);
            tensor<fp16, [1, 4096, 64]> model_tcn_residual_block_9_activation_28_Relu_cast = relu(x = model_tcn_residual_block_9_conv1D_1_BiasAdd_cast);
            tensor<fp16, [1, 4096, 64]> model_tcn_add_10_add_8_cast = add(x = model_tcn_add_10_add_7_cast, y = model_tcn_residual_block_9_activation_28_Relu_cast);
            tensor<int32, [3]> model_beats_dense_Tensordot_concat_1 = const()[name = tensor<string, []>("model_beats_dense_Tensordot_concat_1"), val = tensor<int32, [3]>([1, 4096, 32])];
            tensor<int32, [3]> model_downbeats_dense_Tensordot_concat_1 = const()[name = tensor<string, []>("model_downbeats_dense_Tensordot_concat_1"), val = tensor<int32, [3]>([1, 4096, 32])];
            tensor<int32, [3]> model_bpb_dense_Tensordot_concat_1 = const()[name = tensor<string, []>("model_bpb_dense_Tensordot_concat_1"), val = tensor<int32, [3]>([1, 4096, 32])];
            tensor<int32, [3]> model_tempo_dense_Tensordot_concat_1 = const()[name = tensor<string, []>("model_tempo_dense_Tensordot_concat_1"), val = tensor<int32, [3]>([1, 4096, 32])];
            tensor<int32, [2]> model_beats_dense_Tensordot_stack = const()[name = tensor<string, []>("model_beats_dense_Tensordot_stack"), val = tensor<int32, [2]>([4096, 64])];
            tensor<fp16, [4096, 64]> model_beats_dense_Tensordot_Reshape_cast = reshape(shape = model_beats_dense_Tensordot_stack, x = model_tcn_add_10_add_8_cast);
            tensor<bool, []> model_beats_dense_Tensordot_MatMul_transpose_x_0 = const()[name = tensor<string, []>("model_beats_dense_Tensordot_MatMul_transpose_x_0"), val = tensor<bool, []>(false)];
            tensor<bool, []> model_beats_dense_Tensordot_MatMul_transpose_y_0 = const()[name = tensor<string, []>("model_beats_dense_Tensordot_MatMul_transpose_y_0"), val = tensor<bool, []>(false)];
            tensor<fp16, [64, 32]> model_beats_dense_Tensordot_ReadVariableOp_to_fp16 = const()[name = tensor<string, []>("model_beats_dense_Tensordot_ReadVariableOp_to_fp16"), val = tensor<fp16, [64, 32]>(BLOBFILE(path = tensor<string, []>("@model_path/weights/weight.bin"), offset = tensor<uint64, []>(1500992)))];
            tensor<fp16, [4096, 32]> model_beats_dense_Tensordot_MatMul_cast = matmul(transpose_x = model_beats_dense_Tensordot_MatMul_transpose_x_0, transpose_y = model_beats_dense_Tensordot_MatMul_transpose_y_0, x = model_beats_dense_Tensordot_Reshape_cast, y = model_beats_dense_Tensordot_ReadVariableOp_to_fp16);
            tensor<bool, []> model_downbeats_dense_Tensordot_MatMul_transpose_x_0 = const()[name = tensor<string, []>("model_downbeats_dense_Tensordot_MatMul_transpose_x_0"), val = tensor<bool, []>(false)];
            tensor<bool, []> model_downbeats_dense_Tensordot_MatMul_transpose_y_0 = const()[name = tensor<string, []>("model_downbeats_dense_Tensordot_MatMul_transpose_y_0"), val = tensor<bool, []>(false)];
            tensor<fp16, [64, 32]> model_downbeats_dense_Tensordot_ReadVariableOp_to_fp16 = const()[name = tensor<string, []>("model_downbeats_dense_Tensordot_ReadVariableOp_to_fp16"), val = tensor<fp16, [64, 32]>(BLOBFILE(path = tensor<string, []>("@model_path/weights/weight.bin"), offset = tensor<uint64, []>(1505152)))];
            tensor<fp16, [4096, 32]> model_downbeats_dense_Tensordot_MatMul_cast = matmul(transpose_x = model_downbeats_dense_Tensordot_MatMul_transpose_x_0, transpose_y = model_downbeats_dense_Tensordot_MatMul_transpose_y_0, x = model_beats_dense_Tensordot_Reshape_cast, y = model_downbeats_dense_Tensordot_ReadVariableOp_to_fp16);
            tensor<bool, []> model_bpb_dense_Tensordot_MatMul_transpose_x_0 = const()[name = tensor<string, []>("model_bpb_dense_Tensordot_MatMul_transpose_x_0"), val = tensor<bool, []>(false)];
            tensor<bool, []> model_bpb_dense_Tensordot_MatMul_transpose_y_0 = const()[name = tensor<string, []>("model_bpb_dense_Tensordot_MatMul_transpose_y_0"), val = tensor<bool, []>(false)];
            tensor<fp16, [64, 32]> model_bpb_dense_Tensordot_ReadVariableOp_to_fp16 = const()[name = tensor<string, []>("model_bpb_dense_Tensordot_ReadVariableOp_to_fp16"), val = tensor<fp16, [64, 32]>(BLOBFILE(path = tensor<string, []>("@model_path/weights/weight.bin"), offset = tensor<uint64, []>(1509312)))];
            tensor<fp16, [4096, 32]> model_bpb_dense_Tensordot_MatMul_cast = matmul(transpose_x = model_bpb_dense_Tensordot_MatMul_transpose_x_0, transpose_y = model_bpb_dense_Tensordot_MatMul_transpose_y_0, x = model_beats_dense_Tensordot_Reshape_cast, y = model_bpb_dense_Tensordot_ReadVariableOp_to_fp16);
            tensor<bool, []> model_tempo_dense_Tensordot_MatMul_transpose_x_0 = const()[name = tensor<string, []>("model_tempo_dense_Tensordot_MatMul_transpose_x_0"), val = tensor<bool, []>(false)];
            tensor<bool, []> model_tempo_dense_Tensordot_MatMul_transpose_y_0 = const()[name = tensor<string, []>("model_tempo_dense_Tensordot_MatMul_transpose_y_0"), val = tensor<bool, []>(false)];
            tensor<fp16, [64, 32]> model_tempo_dense_Tensordot_ReadVariableOp_to_fp16 = const()[name = tensor<string, []>("model_tempo_dense_Tensordot_ReadVariableOp_to_fp16"), val = tensor<fp16, [64, 32]>(BLOBFILE(path = tensor<string, []>("@model_path/weights/weight.bin"), offset = tensor<uint64, []>(1513472)))];
            tensor<fp16, [4096, 32]> model_tempo_dense_Tensordot_MatMul_cast = matmul(transpose_x = model_tempo_dense_Tensordot_MatMul_transpose_x_0, transpose_y = model_tempo_dense_Tensordot_MatMul_transpose_y_0, x = model_beats_dense_Tensordot_Reshape_cast, y = model_tempo_dense_Tensordot_ReadVariableOp_to_fp16);
            tensor<fp16, [1, 4096, 32]> model_beats_dense_Tensordot_cast = reshape(shape = model_beats_dense_Tensordot_concat_1, x = model_beats_dense_Tensordot_MatMul_cast);
            tensor<fp16, [1, 4096, 32]> model_downbeats_dense_Tensordot_cast = reshape(shape = model_downbeats_dense_Tensordot_concat_1, x = model_downbeats_dense_Tensordot_MatMul_cast);
            tensor<fp16, [1, 4096, 32]> model_bpb_dense_Tensordot_cast = reshape(shape = model_bpb_dense_Tensordot_concat_1, x = model_bpb_dense_Tensordot_MatMul_cast);
            tensor<fp16, [1, 4096, 32]> model_tempo_dense_Tensordot_cast = reshape(shape = model_tempo_dense_Tensordot_concat_1, x = model_tempo_dense_Tensordot_MatMul_cast);
            tensor<fp16, [32]> model_beats_dense_BiasAdd_ReadVariableOp_to_fp16 = const()[name = tensor<string, []>("model_beats_dense_BiasAdd_ReadVariableOp_to_fp16"), val = tensor<fp16, [32]>(BLOBFILE(path = tensor<string, []>("@model_path/weights/weight.bin"), offset = tensor<uint64, []>(1517632)))];
            tensor<fp16, [1, 4096, 32]> model_beats_dense_BiasAdd_cast = add(x = model_beats_dense_Tensordot_cast, y = model_beats_dense_BiasAdd_ReadVariableOp_to_fp16);
            tensor<fp16, [32]> model_downbeats_dense_BiasAdd_ReadVariableOp_to_fp16 = const()[name = tensor<string, []>("model_downbeats_dense_BiasAdd_ReadVariableOp_to_fp16"), val = tensor<fp16, [32]>(BLOBFILE(path = tensor<string, []>("@model_path/weights/weight.bin"), offset = tensor<uint64, []>(1517760)))];
            tensor<fp16, [1, 4096, 32]> model_downbeats_dense_BiasAdd_cast = add(x = model_downbeats_dense_Tensordot_cast, y = model_downbeats_dense_BiasAdd_ReadVariableOp_to_fp16);
            tensor<fp16, [32]> model_bpb_dense_BiasAdd_ReadVariableOp_to_fp16 = const()[name = tensor<string, []>("model_bpb_dense_BiasAdd_ReadVariableOp_to_fp16"), val = tensor<fp16, [32]>(BLOBFILE(path = tensor<string, []>("@model_path/weights/weight.bin"), offset = tensor<uint64, []>(1517888)))];
            tensor<fp16, [1, 4096, 32]> model_bpb_dense_BiasAdd_cast = add(x = model_bpb_dense_Tensordot_cast, y = model_bpb_dense_BiasAdd_ReadVariableOp_to_fp16);
            tensor<fp16, [32]> model_tempo_dense_BiasAdd_ReadVariableOp_to_fp16 = const()[name = tensor<string, []>("model_tempo_dense_BiasAdd_ReadVariableOp_to_fp16"), val = tensor<fp16, [32]>(BLOBFILE(path = tensor<string, []>("@model_path/weights/weight.bin"), offset = tensor<uint64, []>(1518016)))];
            tensor<fp16, [1, 4096, 32]> model_tempo_dense_BiasAdd_cast = add(x = model_tempo_dense_Tensordot_cast, y = model_tempo_dense_BiasAdd_ReadVariableOp_to_fp16);
            tensor<fp16, []> elu_22_alpha_0_to_fp16 = const()[name = tensor<string, []>("elu_22_alpha_0_to_fp16"), val = tensor<fp16, []>(0x1.ac4p+0)];
            tensor<fp16, [1, 4096, 32]> elu_22_cast = elu(alpha = elu_22_alpha_0_to_fp16, x = model_beats_dense_BiasAdd_cast);
            tensor<fp16, []> model_beats_dense_Selu_y_0_to_fp16 = const()[name = tensor<string, []>("model_beats_dense_Selu_y_0_to_fp16"), val = tensor<fp16, []>(0x1.0dp+0)];
            tensor<fp16, [1, 4096, 32]> model_beats_dense_Selu_cast = mul(x = elu_22_cast, y = model_beats_dense_Selu_y_0_to_fp16);
            tensor<fp16, []> elu_23_alpha_0_to_fp16 = const()[name = tensor<string, []>("elu_23_alpha_0_to_fp16"), val = tensor<fp16, []>(0x1.ac4p+0)];
            tensor<fp16, [1, 4096, 32]> elu_23_cast = elu(alpha = elu_23_alpha_0_to_fp16, x = model_downbeats_dense_BiasAdd_cast);
            tensor<fp16, []> model_downbeats_dense_Selu_y_0_to_fp16 = const()[name = tensor<string, []>("model_downbeats_dense_Selu_y_0_to_fp16"), val = tensor<fp16, []>(0x1.0dp+0)];
            tensor<fp16, [1, 4096, 32]> model_downbeats_dense_Selu_cast = mul(x = elu_23_cast, y = model_downbeats_dense_Selu_y_0_to_fp16);
            tensor<fp16, []> elu_24_alpha_0_to_fp16 = const()[name = tensor<string, []>("elu_24_alpha_0_to_fp16"), val = tensor<fp16, []>(0x1.ac4p+0)];
            tensor<fp16, [1, 4096, 32]> elu_24_cast = elu(alpha = elu_24_alpha_0_to_fp16, x = model_bpb_dense_BiasAdd_cast);
            tensor<fp16, []> model_bpb_dense_Selu_y_0_to_fp16 = const()[name = tensor<string, []>("model_bpb_dense_Selu_y_0_to_fp16"), val = tensor<fp16, []>(0x1.0dp+0)];
            tensor<fp16, [1, 4096, 32]> model_bpb_dense_Selu_cast = mul(x = elu_24_cast, y = model_bpb_dense_Selu_y_0_to_fp16);
            tensor<fp16, []> elu_25_alpha_0_to_fp16 = const()[name = tensor<string, []>("elu_25_alpha_0_to_fp16"), val = tensor<fp16, []>(0x1.ac4p+0)];
            tensor<fp16, [1, 4096, 32]> elu_25_cast = elu(alpha = elu_25_alpha_0_to_fp16, x = model_tempo_dense_BiasAdd_cast);
            tensor<fp16, []> model_tempo_dense_Selu_y_0_to_fp16 = const()[name = tensor<string, []>("model_tempo_dense_Selu_y_0_to_fp16"), val = tensor<fp16, []>(0x1.0dp+0)];
            tensor<fp16, [1, 4096, 32]> model_tempo_dense_Selu_cast = mul(x = elu_25_cast, y = model_tempo_dense_Selu_y_0_to_fp16);
            tensor<bool, []> model_beats_downbeats_concat_dense_concat_interleave_0 = const()[name = tensor<string, []>("model_beats_downbeats_concat_dense_concat_interleave_0"), val = tensor<bool, []>(false)];
            tensor<fp16, [1, 4096, 64]> model_beats_downbeats_concat_dense_concat_cast = concat(axis = model_beats_downbeats_concat_dense_concat_axis, interleave = model_beats_downbeats_concat_dense_concat_interleave_0, values = (model_beats_dense_Selu_cast, model_downbeats_dense_Selu_cast));
            tensor<int32, [3]> model_output_beat_Tensordot_concat_1 = const()[name = tensor<string, []>("model_output_beat_Tensordot_concat_1"), val = tensor<int32, [3]>([1, 4096, 1])];
            tensor<int32, [3]> model_output_downbeat_Tensordot_concat_1 = const()[name = tensor<string, []>("model_output_downbeat_Tensordot_concat_1"), val = tensor<int32, [3]>([1, 4096, 1])];
            tensor<int32, [3]> model_output_bpb_Tensordot_concat_1 = const()[name = tensor<string, []>("model_output_bpb_Tensordot_concat_1"), val = tensor<int32, [3]>([1, 4096, 13])];
            tensor<int32, [3]> model_output_tempo_Tensordot_concat_1 = const()[name = tensor<string, []>("model_output_tempo_Tensordot_concat_1"), val = tensor<int32, [3]>([1, 4096, 251])];
            tensor<int32, [2]> model_output_beat_Tensordot_stack = const()[name = tensor<string, []>("model_output_beat_Tensordot_stack"), val = tensor<int32, [2]>([4096, 32])];
            tensor<int32, [3]> model_output_beat_no_downbeat_Tensordot_concat_1 = const()[name = tensor<string, []>("model_output_beat_no_downbeat_Tensordot_concat_1"), val = tensor<int32, [3]>([1, 4096, 1])];
            tensor<int32, [2]> model_output_downbeat_Tensordot_stack = const()[name = tensor<string, []>("model_output_downbeat_Tensordot_stack"), val = tensor<int32, [2]>([4096, 32])];
            tensor<int32, [2]> model_output_bpb_Tensordot_stack = const()[name = tensor<string, []>("model_output_bpb_Tensordot_stack"), val = tensor<int32, [2]>([4096, 32])];
            tensor<int32, [2]> model_output_tempo_Tensordot_stack = const()[name = tensor<string, []>("model_output_tempo_Tensordot_stack"), val = tensor<int32, [2]>([4096, 32])];
            tensor<fp16, [4096, 32]> model_output_beat_Tensordot_Reshape_cast = reshape(shape = model_output_beat_Tensordot_stack, x = model_beats_dense_Selu_cast);
            tensor<int32, [2]> model_output_beat_no_downbeat_Tensordot_stack = const()[name = tensor<string, []>("model_output_beat_no_downbeat_Tensordot_stack"), val = tensor<int32, [2]>([4096, 64])];
            tensor<fp16, [4096, 32]> model_output_downbeat_Tensordot_Reshape_cast = reshape(shape = model_output_downbeat_Tensordot_stack, x = model_downbeats_dense_Selu_cast);
            tensor<fp16, [4096, 32]> model_output_bpb_Tensordot_Reshape_cast = reshape(shape = model_output_bpb_Tensordot_stack, x = model_bpb_dense_Selu_cast);
            tensor<fp16, [4096, 32]> model_output_tempo_Tensordot_Reshape_cast = reshape(shape = model_output_tempo_Tensordot_stack, x = model_tempo_dense_Selu_cast);
            tensor<bool, []> model_output_beat_Tensordot_MatMul_transpose_x_0 = const()[name = tensor<string, []>("model_output_beat_Tensordot_MatMul_transpose_x_0"), val = tensor<bool, []>(false)];
            tensor<bool, []> model_output_beat_Tensordot_MatMul_transpose_y_0 = const()[name = tensor<string, []>("model_output_beat_Tensordot_MatMul_transpose_y_0"), val = tensor<bool, []>(false)];
            tensor<fp16, [32, 1]> model_output_beat_Tensordot_ReadVariableOp_to_fp16 = const()[name = tensor<string, []>("model_output_beat_Tensordot_ReadVariableOp_to_fp16"), val = tensor<fp16, [32, 1]>(BLOBFILE(path = tensor<string, []>("@model_path/weights/weight.bin"), offset = tensor<uint64, []>(1518144)))];
            tensor<fp16, [4096, 1]> model_output_beat_Tensordot_MatMul_cast = matmul(transpose_x = model_output_beat_Tensordot_MatMul_transpose_x_0, transpose_y = model_output_beat_Tensordot_MatMul_transpose_y_0, x = model_output_beat_Tensordot_Reshape_cast, y = model_output_beat_Tensordot_ReadVariableOp_to_fp16);
            tensor<fp16, [4096, 64]> model_output_beat_no_downbeat_Tensordot_Reshape_cast = reshape(shape = model_output_beat_no_downbeat_Tensordot_stack, x = model_beats_downbeats_concat_dense_concat_cast);
            tensor<bool, []> model_output_downbeat_Tensordot_MatMul_transpose_x_0 = const()[name = tensor<string, []>("model_output_downbeat_Tensordot_MatMul_transpose_x_0"), val = tensor<bool, []>(false)];
            tensor<bool, []> model_output_downbeat_Tensordot_MatMul_transpose_y_0 = const()[name = tensor<string, []>("model_output_downbeat_Tensordot_MatMul_transpose_y_0"), val = tensor<bool, []>(false)];
            tensor<fp16, [32, 1]> model_output_downbeat_Tensordot_ReadVariableOp_to_fp16 = const()[name = tensor<string, []>("model_output_downbeat_Tensordot_ReadVariableOp_to_fp16"), val = tensor<fp16, [32, 1]>(BLOBFILE(path = tensor<string, []>("@model_path/weights/weight.bin"), offset = tensor<uint64, []>(1518272)))];
            tensor<fp16, [4096, 1]> model_output_downbeat_Tensordot_MatMul_cast = matmul(transpose_x = model_output_downbeat_Tensordot_MatMul_transpose_x_0, transpose_y = model_output_downbeat_Tensordot_MatMul_transpose_y_0, x = model_output_downbeat_Tensordot_Reshape_cast, y = model_output_downbeat_Tensordot_ReadVariableOp_to_fp16);
            tensor<bool, []> model_output_bpb_Tensordot_MatMul_transpose_x_0 = const()[name = tensor<string, []>("model_output_bpb_Tensordot_MatMul_transpose_x_0"), val = tensor<bool, []>(false)];
            tensor<bool, []> model_output_bpb_Tensordot_MatMul_transpose_y_0 = const()[name = tensor<string, []>("model_output_bpb_Tensordot_MatMul_transpose_y_0"), val = tensor<bool, []>(false)];
            tensor<fp16, [32, 13]> model_output_bpb_Tensordot_ReadVariableOp_to_fp16 = const()[name = tensor<string, []>("model_output_bpb_Tensordot_ReadVariableOp_to_fp16"), val = tensor<fp16, [32, 13]>(BLOBFILE(path = tensor<string, []>("@model_path/weights/weight.bin"), offset = tensor<uint64, []>(1518400)))];
            tensor<fp16, [4096, 13]> model_output_bpb_Tensordot_MatMul_cast = matmul(transpose_x = model_output_bpb_Tensordot_MatMul_transpose_x_0, transpose_y = model_output_bpb_Tensordot_MatMul_transpose_y_0, x = model_output_bpb_Tensordot_Reshape_cast, y = model_output_bpb_Tensordot_ReadVariableOp_to_fp16);
            tensor<bool, []> model_output_tempo_Tensordot_MatMul_transpose_x_0 = const()[name = tensor<string, []>("model_output_tempo_Tensordot_MatMul_transpose_x_0"), val = tensor<bool, []>(false)];
            tensor<bool, []> model_output_tempo_Tensordot_MatMul_transpose_y_0 = const()[name = tensor<string, []>("model_output_tempo_Tensordot_MatMul_transpose_y_0"), val = tensor<bool, []>(false)];
            tensor<fp16, [32, 251]> model_output_tempo_Tensordot_ReadVariableOp_to_fp16 = const()[name = tensor<string, []>("model_output_tempo_Tensordot_ReadVariableOp_to_fp16"), val = tensor<fp16, [32, 251]>(BLOBFILE(path = tensor<string, []>("@model_path/weights/weight.bin"), offset = tensor<uint64, []>(1519296)))];
            tensor<fp16, [4096, 251]> model_output_tempo_Tensordot_MatMul_cast = matmul(transpose_x = model_output_tempo_Tensordot_MatMul_transpose_x_0, transpose_y = model_output_tempo_Tensordot_MatMul_transpose_y_0, x = model_output_tempo_Tensordot_Reshape_cast, y = model_output_tempo_Tensordot_ReadVariableOp_to_fp16);
            tensor<fp16, [1, 4096, 1]> model_output_beat_Tensordot_cast = reshape(shape = model_output_beat_Tensordot_concat_1, x = model_output_beat_Tensordot_MatMul_cast);
            tensor<bool, []> model_output_beat_no_downbeat_Tensordot_MatMul_transpose_x_0 = const()[name = tensor<string, []>("model_output_beat_no_downbeat_Tensordot_MatMul_transpose_x_0"), val = tensor<bool, []>(false)];
            tensor<bool, []> model_output_beat_no_downbeat_Tensordot_MatMul_transpose_y_0 = const()[name = tensor<string, []>("model_output_beat_no_downbeat_Tensordot_MatMul_transpose_y_0"), val = tensor<bool, []>(false)];
            tensor<fp16, [64, 1]> model_output_beat_no_downbeat_Tensordot_ReadVariableOp_to_fp16 = const()[name = tensor<string, []>("model_output_beat_no_downbeat_Tensordot_ReadVariableOp_to_fp16"), val = tensor<fp16, [64, 1]>(BLOBFILE(path = tensor<string, []>("@model_path/weights/weight.bin"), offset = tensor<uint64, []>(1535424)))];
            tensor<fp16, [4096, 1]> model_output_beat_no_downbeat_Tensordot_MatMul_cast = matmul(transpose_x = model_output_beat_no_downbeat_Tensordot_MatMul_transpose_x_0, transpose_y = model_output_beat_no_downbeat_Tensordot_MatMul_transpose_y_0, x = model_output_beat_no_downbeat_Tensordot_Reshape_cast, y = model_output_beat_no_downbeat_Tensordot_ReadVariableOp_to_fp16);
            tensor<fp16, [1, 4096, 1]> model_output_downbeat_Tensordot_cast = reshape(shape = model_output_downbeat_Tensordot_concat_1, x = model_output_downbeat_Tensordot_MatMul_cast);
            tensor<fp16, [1, 4096, 13]> model_output_bpb_Tensordot_cast = reshape(shape = model_output_bpb_Tensordot_concat_1, x = model_output_bpb_Tensordot_MatMul_cast);
            tensor<fp16, [1, 4096, 251]> model_output_tempo_Tensordot_cast = reshape(shape = model_output_tempo_Tensordot_concat_1, x = model_output_tempo_Tensordot_MatMul_cast);
            tensor<fp16, [1]> model_output_beat_BiasAdd_ReadVariableOp_to_fp16 = const()[name = tensor<string, []>("model_output_beat_BiasAdd_ReadVariableOp_to_fp16"), val = tensor<fp16, [1]>([-0x1.028p-5])];
            tensor<fp16, [1, 4096, 1]> model_output_beat_BiasAdd_cast = add(x = model_output_beat_Tensordot_cast, y = model_output_beat_BiasAdd_ReadVariableOp_to_fp16);
            tensor<fp16, [1, 4096, 1]> model_output_beat_no_downbeat_Tensordot_cast = reshape(shape = model_output_beat_no_downbeat_Tensordot_concat_1, x = model_output_beat_no_downbeat_Tensordot_MatMul_cast);
            tensor<fp16, [1]> model_output_downbeat_BiasAdd_ReadVariableOp_to_fp16 = const()[name = tensor<string, []>("model_output_downbeat_BiasAdd_ReadVariableOp_to_fp16"), val = tensor<fp16, [1]>([-0x1.764p-3])];
            tensor<fp16, [1, 4096, 1]> model_output_downbeat_BiasAdd_cast = add(x = model_output_downbeat_Tensordot_cast, y = model_output_downbeat_BiasAdd_ReadVariableOp_to_fp16);
            tensor<fp16, [13]> model_output_bpb_BiasAdd_ReadVariableOp_to_fp16 = const()[name = tensor<string, []>("model_output_bpb_BiasAdd_ReadVariableOp_to_fp16"), val = tensor<fp16, [13]>(BLOBFILE(path = tensor<string, []>("@model_path/weights/weight.bin"), offset = tensor<uint64, []>(1535616)))];
            tensor<fp16, [1, 4096, 13]> model_output_bpb_BiasAdd_cast = add(x = model_output_bpb_Tensordot_cast, y = model_output_bpb_BiasAdd_ReadVariableOp_to_fp16);
            tensor<fp16, [251]> model_output_tempo_BiasAdd_ReadVariableOp_to_fp16 = const()[name = tensor<string, []>("model_output_tempo_BiasAdd_ReadVariableOp_to_fp16"), val = tensor<fp16, [251]>(BLOBFILE(path = tensor<string, []>("@model_path/weights/weight.bin"), offset = tensor<uint64, []>(1535744)))];
            tensor<fp16, [1, 4096, 251]> model_output_tempo_BiasAdd_cast = add(x = model_output_tempo_Tensordot_cast, y = model_output_tempo_BiasAdd_ReadVariableOp_to_fp16);
            tensor<fp16, [1, 4096, 1]> model_output_beat_Sigmoid_cast = sigmoid(x = model_output_beat_BiasAdd_cast);
            tensor<string, []> model_output_beat_Sigmoid_cast_to_fp32_dtype_0 = const()[name = tensor<string, []>("model_output_beat_Sigmoid_cast_to_fp32_dtype_0"), val = tensor<string, []>("fp32")];
            tensor<fp16, [1]> model_output_beat_no_downbeat_BiasAdd_ReadVariableOp_to_fp16 = const()[name = tensor<string, []>("model_output_beat_no_downbeat_BiasAdd_ReadVariableOp_to_fp16"), val = tensor<fp16, [1]>([-0x1.294p-6])];
            tensor<fp16, [1, 4096, 1]> model_output_beat_no_downbeat_BiasAdd_cast = add(x = model_output_beat_no_downbeat_Tensordot_cast, y = model_output_beat_no_downbeat_BiasAdd_ReadVariableOp_to_fp16);
            tensor<fp16, [1, 4096, 1]> model_output_downbeat_Sigmoid_cast = sigmoid(x = model_output_downbeat_BiasAdd_cast);
            tensor<string, []> model_output_downbeat_Sigmoid_cast_to_fp32_dtype_0 = const()[name = tensor<string, []>("model_output_downbeat_Sigmoid_cast_to_fp32_dtype_0"), val = tensor<string, []>("fp32")];
            tensor<int32, []> model_output_bpb_Softmax_axis_0 = const()[name = tensor<string, []>("model_output_bpb_Softmax_axis_0"), val = tensor<int32, []>(-1)];
            tensor<fp16, [1, 4096, 13]> model_output_bpb_Softmax_cast = softmax(axis = model_output_bpb_Softmax_axis_0, x = model_output_bpb_BiasAdd_cast);
            tensor<string, []> model_output_bpb_Softmax_cast_to_fp32_dtype_0 = const()[name = tensor<string, []>("model_output_bpb_Softmax_cast_to_fp32_dtype_0"), val = tensor<string, []>("fp32")];
            tensor<int32, []> model_output_tempo_Softmax_axis_0 = const()[name = tensor<string, []>("model_output_tempo_Softmax_axis_0"), val = tensor<int32, []>(-1)];
            tensor<fp16, [1, 4096, 251]> model_output_tempo_Softmax_cast = softmax(axis = model_output_tempo_Softmax_axis_0, x = model_output_tempo_BiasAdd_cast);
            tensor<string, []> model_output_tempo_Softmax_cast_to_fp32_dtype_0 = const()[name = tensor<string, []>("model_output_tempo_Softmax_cast_to_fp32_dtype_0"), val = tensor<string, []>("fp32")];
            tensor<fp16, [1, 4096, 1]> model_output_beat_no_downbeat_Sigmoid_cast = sigmoid(x = model_output_beat_no_downbeat_BiasAdd_cast);
            tensor<string, []> model_output_beat_no_downbeat_Sigmoid_cast_to_fp32_dtype_0 = const()[name = tensor<string, []>("model_output_beat_no_downbeat_Sigmoid_cast_to_fp32_dtype_0"), val = tensor<string, []>("fp32")];
            tensor<fp32, [1, 4096, 1]> output_beats_no_downbeats = cast(dtype = model_output_beat_no_downbeat_Sigmoid_cast_to_fp32_dtype_0, x = model_output_beat_no_downbeat_Sigmoid_cast);
            tensor<fp32, [1, 4096, 251]> output_tempo = cast(dtype = model_output_tempo_Softmax_cast_to_fp32_dtype_0, x = model_output_tempo_Softmax_cast);
            tensor<fp32, [1, 4096, 13]> output_bpb = cast(dtype = model_output_bpb_Softmax_cast_to_fp32_dtype_0, x = model_output_bpb_Softmax_cast);
            tensor<fp32, [1, 4096, 1]> output_downbeats = cast(dtype = model_output_downbeat_Sigmoid_cast_to_fp32_dtype_0, x = model_output_downbeat_Sigmoid_cast);
            tensor<fp32, [1, 4096, 1]> output_beats = cast(dtype = model_output_beat_Sigmoid_cast_to_fp32_dtype_0, x = model_output_beat_Sigmoid_cast);
        } -> (output_beats, output_beats_no_downbeats, output_bpb, output_downbeats, output_tempo);
}